model_zoo/-11_X3_0.10M_30.047.pth (torch, 447611 bytes, 70 tensors)

weight f4 [43, 12, 3, 3]
0.1650655 0.14654638 -0.044012975 -0.12560877 0.17758816 0.03875776 -0.0779608 0.13642175
0.13046888 0.17272839 -0.16921686 0.030814486 -0.009724916 -0.028334893 -0.1607563 -0.06510454
0.1371792 0.01812886 0.06752695 -0.010799112 0.042479806 0.056060933 0.1016203 0.11970795
-0.16222815 0.10245261 -0.101080224 -0.0040648836 0.055788774 -0.059972316 -0.08955616 0.12152578
-0.030420227 0.08616227 0.06380585 -0.0058654645 -0.077088 0.0428569 0.08053906 -0.029797832
-0.10119498 -0.040382527 0.06357574 0.07031251 0.023372032 -0.09624365 -0.011694647 -0.053474247
-0.07107445 0.051002767 -0.029137002 0.07625295 0.04799526 0.11669451 -0.003045758 -0.030669937
-0.035830334 0.010700541 0.1152795 0.05292197 -0.02460104 0.056220364 -0.041921217 0.08414971
-0.004639783 0.017724521 0.006949536 0.101391725 0.031586856 -0.016064724 -0.047419947 0.0601073
-0.123681195 0.017606204 0.023726108 0.04350183 -0.025136644 -0.07030884 0.07100481 0.022746723
-0.024775079 0.0024179933 0.047248274 -0.035540428 0.09898805 0.079326585 0.052307915 -0.029398229
-0.044500697 -0.048869796 -0.04945555 -0.01461148 0.029780885 0.1062178 0.061430376 0.09849068
0.06790987 -0.015231799 -0.06891432 0.012885502 0.025031455 0.021703985 0.03204866 -0.048114296
0.08843795 0.03718242 -0.05567476 0.047794703 0.06579564 0.05483601 0.057802048 0.20966955
-0.0809481 -0.082310274 -0.15584275 -0.012724138 -0.10061689 -0.00087555964 -0.03612777 0.036159884
0.12846355 -0.015872763 -0.12850727 -0.12494761 -0.17418516 0.17190209 -0.014503088 0.04113815
-0.004419246 -0.13462466 0.041140195 0.12445544 0.018752592 -0.12697777 -0.07661561 -0.060243215
-0.038126517 0.034155823 0.04233387 0.0835558 0.058362484 0.04381086 -0.00019689668 0.05245203
-0.068678185 0.02467149 0.068534166 0.01772161 -0.1371565 -0.05270223 -0.046455074 -0.020568488
0.055978242 -0.033858906 0.010633474 -0.04529165 -0.09793392 -0.13090728 -0.0043135593 -0.056551035
-0.034340892 0.0050242436 -0.037499767 -0.10746775 -0.04609301 -0.0015220699 0.07174118 -0.046465237
0.049124368 -0.023517134 -0.113018654 0.07484661 0.07603375 -0.0077834227 -0.122806005 -0.097710975
-0.07591913 0.025342338 0.053264074 -0.06041254 0.01092541 -0.04079167 0.012260599 0.0036472739
-0.15088426 0.08837498 -0.06297199 0.06258291 -0.042379346 0.07349707 0.036816034 0.018990505
0.0068856208 -0.06994615 -0.019534703 0.038051024 -0.034179416 0.039263755 -0.026208226 0.046680387
0.030172052 -0.11161413 0.0032075688 -0.008140865 0.03987119 0.02740199 0.074838854 0.041020963
-0.07145099 -0.052781183 -0.015449896 -0.042098127 -0.026659979 0.028212389 0.021163825 0.08984499
0.012552388 -0.10457927 -0.11368061 -0.004708246 0.023500953 0.018521808 -0.045656543 -0.009980735
-0.06795735 -0.16543134 0.24467815 0.068857014 0.17551233 -0.035425216 -0.05776595 -0.19281171
-0.031105943 0.1551947 -0.15973493 -0.02310482 0.13198389 0.12428623 0.11579035 -0.022346834
0.00016377278 -0.034613796 -0.06791126 0.009285679 0.014836281 0.017916493 0.10561625 0.056205925
0.0400216 -0.026518673 -0.03911452 0.053942535 0.006959764 0.10588266 -0.0017340224 -0.039341465
00000000: ee06 293e 4110 163e f346 34bd 969f 00be
00000010: acd9 353e 75c0 1e3d e9a9 9fbd 25b2 0b3e
00000020: a299 053e b6df 303e 2f47 2dbe a96e fc3c
00000030: 4155 1fbc 941e e8bc 4d9d 24be 8755 85bd
00000040: b478 0c3e fa82 943c 924b 8a3d c2ee 30bc
00000050: 4eff 2d3d 26a0 653d 4e1e d03d 7129 f53d
00000060: 231f 26be add2 d13d 2603 cfbd b732 85bb
00000070: c582 643d 88a5 75bd 3869 b7bd 82e2 f83d
00000080: d733 f9bc d875 b03d a4ac 823d 1533 c0bb
00000090: 50e0 9dbd b78a 2f3d aaf1 a43d 951a f4bc
000000a0: 503f cfbd 2668 25bd ff33 823d 0100 903d
000000b0: b476 bf3c 641b c5bd e89a 3fbc d007 5bbd
000000c0: 7b8f 91bd 47e8 503d b9b0 eebc 822a 9c3d
000000d0: ae96 443d 88fd ee3d 579b 47bb 853f fbbc
000000e0: d4c2 12bd 5251 2f3c a917 ec3d b5c4 583d
000000f0: 1f88 c9bc 5347 663d 95b5 2bbd af56 ac3d
00000100: 5209 98bb 0433 913c efb8 e33b 77a6 cf3d
00000110: 3861 013d 2b9a 83bc 6b3b 42bd 1233 763d
00000120: 914c fdbd e33a 903c 415d c23c fa2e 323d
00000130: 5deb cdbc 15fe 8fbd f86a 913d 5657 ba3c
00000140: 1bf5 cabc 3277 1e3b 6887 413d d792 11bd
00000150: 3fba ca3d fa75 a23d d340 563d 8ed4 f0bc
00000160: 5d46 36bd b22b 48bd e791 4abd fd64 6fbc
00000170: 0bf7 f33c b888 d93d 6b9e 7b3d 7bb5 c93d
00000180: 5414 8b3d cc8e 79bc f322 8dbd b61d 533c
00000190: c40e cd3c 8ecc b13c 7545 033d 7f13 45bd
000001a0: f51e b53d 984c 183d 380b 64bd 61c4 433d
000001b0: ddbf 863d b99b 603d d7c1 6c3d 9db3 563e
000001c0: 1ec8 a5bd 4a92 a8bd 3e95 1fbe e778 50bc
000001d0: 3a10 cebd d085 65ba b6fa 13bd 631c 143d
000001e0: f38b 033e 9907 82bc 6997 03be 88e4 ffbd
000001f0: 985d 32be 1a07 303e 5c9e 6dbc 7a80 283d
00000200: 53cf 90bb 0cdb 09be 9f82 283d 7ee2 fe3d
00000210: 099f 993c 7606 02be a5e8 9cbd 97c1 76bd
00000220: 8d2a 1cbd fae6 0b3d 4866 2d3d 4e1f ab3d
00000230: 800d 6f3d 0473 333d 0d76 4eb9 f1d7 563d
00000240: 26a7 8cbd dd1b ca3c a45b 8c3d e92c 913c
00000250: c172 0cbe 4bde 57bd ad47 3ebd 3f7f a8bc
00000260: 7149 653d a3af 0abd 0638 2e3c bd83 39bd
00000270: 9491 c8bd 8f0c 06be c258 8dbb 0fa2 67bd
00000280: 09a9 0cbd 69a2 a43b 5b99 19bd 0d18 dcbd
00000290: 06cc 3cbd 3180 c7ba 0aed 923d 5552 3ebd
000002a0: a236 493d 01a7 c0bc 5376 e7bd 2e49 993d
000002b0: 95b7 9b3d 150c ffbb b781 fbbd b11c c8bd
000002c0: 7d7b 9bbd bc9a cf3c 6e2b 5a3d 2473 77bd
000002d0: 7e00 333c 2b15 27bd aee0 483c 1a07 6f3b
000002e0: 6781 1abe f1fd b43d 75f7 80bd 782b 803d
000002f0: f795 2dbd a285 963d 69cc 163d fa91 9b3c
00000300: c6a0 e13b ed3f 8fbd 3e07 a0bc 64db 1b3d
00000310: b7ff 0bbd 08d3 203d a2b2 d6bc ef33 3f3d
00000320: 612b f73c f395 e4bd 1336 523b 4361 05bc
00000330: f94f 233d 237a e03c 1d45 993d 9905 283d
00000340: e654 92bd 1531 58bd 9021 7dbc 166f 2cbd
00000350: 0766 dabc ab1d e73c c25f ad3c a600 b83d
00000360: 88a8 4d3c a82d d6bd 61d1 e8bd a147 9abb
00000370: 1285 c03c 0cbb 973c 5b02 3bbd 3d86 23bc
00000380: 392d 8bbd d566 29be e98c 7a3e e804 8d3d
00000390: 81b9 333e 081a 11bd fd9b 6cbd 6f70 45be
000003a0: e4d1 febc 5ceb 1e3e 8e91 23be 5246 bdbc
000003b0: c926 073e c789 fe3d 7e23 ed3d b510 b7bc
000003c0: 6cba 2b39 32c7 0dbd 0f15 8bbd f622 183c
000003d0: df13 733c 9cc5 923c 554d d83d 2f38 663d
000003e0: b0ed 233d b03d d9bc 8c36 20bd d9f2 5c3d
000003f0: bb0e e43b 02d9 d83d 2348 e3ba 8424 21bd

bias f4 [43]
0.07287515 0.20279813 0.62839735 -0.21872678 0.01351673 0.051843263 -0.037421364 0.2839992
-0.08281938 -0.049176887 -2.2962692 0.9560719 -1.6107256 1.7196329 4.9480066 1.6047713
-5.0274205 -0.95048153 1.6680287 -3.4585197 1.5652201 2.7143247 -0.6882269 -0.17663032
6.1112223 4.725447 1.0362633 0.029922178 2.9940886 5.178588 -4.668486 2.6061747
0.8835711 4.635215 4.954332 -3.1133428 4.8142376 -0.5427937 3.1037953 4.6318007
4.5337687 2.8205812 -6.274509
00000000: 913f 953d 50aa 4f3e a6de 203f eaf9 5fbe
00000010: 4675 5d3c 9a59 543d 2547 19bd 5868 913e
00000020: 359d a9bd b46d 49bd 13f6 12c0 21c1 743f
00000030: 422c cebf ee1c dc3f 1256 9e40 2569 cd3f
00000040: a1e0 a0c0 c252 73bf f781 d53f 6358 5dc0
00000050: 2259 c83f 7fb7 2d40 a32f 30bf 94de 34be
00000060: 228f c340 dd36 9740 47a4 843f 5b1f f53c
00000070: 269f 3f40 feb6 a540 3d64 95c0 91cb 2640
00000080: b731 623f ae53 9440 e389 9e40 0241 47c0
00000090: 3c0e 9a40 87f4 0abf 95a4 4640 b637 9440
000000a0: a214 9140 6784 3440 c7c8 c8c0

weight f4 [10, 42, 1, 1]
-0.017929994 -0.045050338 -0.005687854 -0.013640054 0.044197418 0.02083661 -0.12503448 -0.12280067
-0.012935762 0.035347857 0.03248407 -0.019824937 -0.041941408 0.016350636 0.02766876 -0.021404814
0.00080233894 -0.08605756 -0.0016423456 -0.011617508 -0.0329817 0.16088414 -0.013644963 0.009924476
-0.010852097 -0.12018476 -0.04622239 0.0036974985 -0.050826363 -0.017532788 -0.022031656 -0.033362895
-0.025839295 -0.021296153 -0.037220687 -0.014237039 0.01698342 0.25104675 -0.016378919 0.005884221
-0.011053555 0.008937255 0.02944328 -0.08713385 0.048205778 0.030598328 -0.08842277 -0.023784138
-0.07921828 -0.07978378 0.031798504 0.12288046 -0.013164812 -0.0542106 0.01601435 -0.0025368375
-0.034564044 0.008492572 0.037874486 0.08642756 0.039338056 -0.034170024 0.0051384713 0.0055193612
-0.019419191 0.02612107 0.011975273 0.13196084 -0.03177179 0.02690748 -0.059442066 0.038681593
0.0427006 0.05024982 -0.02402765 -0.028722383 0.0028791926 -0.04271509 0.07806574 -0.047631625
-0.052663714 -0.0009397218 -0.03907198 0.029268483 0.046530508 -0.045473784 1.0274144 0.011404893
0.07377512 -0.023215447 -0.11548882 0.06639912 0.06360566 0.04472662 -0.05523034 -0.04924048
0.10248641 0.013491986 -0.04428837 0.019205956 0.015433199 0.13934162 0.039819613 -0.024146885
0.006187683 -0.13797532 -0.008791649 0.013691842 -0.019752707 0.10644562 0.034495756 0.028580552
0.01591771 -0.008714261 0.041250784 0.06723242 -0.02759816 -0.015564098 0.02385868 -0.030318512
0.023366345 -0.1605404 -0.041472528 0.023157159 0.01038454 0.019798491 -0.02276749 0.02460118
-0.024296898 1.032439 -0.065648496 0.017350024 0.046137143 0.02999559 -0.025770778 0.02297836
0.009378144 0.019061677 0.06282318 0.004616571 -0.008445908 0.03003686 -0.0055490974 0.075786665
0.0150865475 -0.0078073163 0.070557654 -0.11592378 0.007737148 -0.015449842 0.008270596 -0.066991456
-0.0463291 -0.008719549 -0.013457811 -0.039944347 0.0055663 0.03251473 0.024149077 -0.019387752
-0.0011879754 0.003968191 -0.021076236 -0.069702014 0.005586424 0.075531095 -0.00882107 -0.016474552
0.0001630255 -0.017163374 0.01643631 -0.05605626 1.2724845 -0.001659297 -0.22825362 0.0014220228
0.004983359 -0.07322053 -0.0947306 -0.018353892 0.003799604 0.009727817 -0.010789973 0.02844261
0.040773887 -0.0038609367 0.040843092 -0.029561535 -0.04143622 -0.06898434 -0.047929358 0.0130878985
-0.012260003 -0.14667977 0.21316175 0.03837623 -0.052786518 -0.034177743 0.026219407 0.03589132
-0.03495313 0.0015277781 -0.007717686 -0.04130886 0.03270853 0.116238765 -0.044959113 0.010211186
-0.006931873 0.03604948 0.055454534 -0.07823785 0.050668504 -0.016823566 -0.0969675 -0.051789105
0.03674064 -0.01056754 0.008137769 0.043315634 -0.09820007 -0.04752786 -0.020797879 -0.015704187
-0.1063214 0.032805793 0.050723135 -0.046318382 0.10643104 -0.038727265 -0.06952994 -0.12624499
-0.024118287 0.046697456 -0.02319174 -0.17726369 0.17105721 0.060357716 -0.018110003 0.00448024
-0.05680261 0.08963933 -0.048171885 0.0006922154 0.013360605 -0.05389 0.058821265 0.1695461
-0.06425558 0.051913872 -0.018755874 0.048291337 0.018997805 0.02555678 -0.0056668045 -0.053878482
00000000: ece1 92bc b486 38bd 2d61 babb 887a 5fbc
00000010: 5a08 353d 8ab1 aa3c 0a09 00be eb7e fbbd
00000020: 85f0 53bc eac8 103d 040e 053d e867 a2bc
00000030: c1ca 2bbd c5f1 853c 98a9 e23c 2659 afbc
00000040: 0e54 523a f23e b0bd f943 d7ba 5c57 3ebc
00000050: d217 07bd d0be 243e 1f8f 5fbc 459a 223c
00000060: fecc 31bc 6d23 f6bd b053 3dbd bb51 723b
00000070: 4e2f 50bd eca0 8fbc bb7b b4bc 88a7 08bd
00000080: eeac d3bc 4575 aebc b874 18bd 7842 69bc
00000090: d020 8b3c 3389 803e 152d 86bc 6cd0 c03b
000000a0: f819 35bc 906d 123c 0933 f13c 3b73 b2bd
000000b0: 6c73 453d 58a9 fa3c ff16 b5bd f4d6 c2bc
000000c0: 323d a2bd ae65 a3bd 263f 023d c0a8 fb3d
000000d0: 39b1 57bc ef0b 5ebd 8730 833c 1241 26bb
000000e0: 0793 0dbd 6e24 0b3c 4722 1b3d ef00 b13d
000000f0: f120 213d def5 0bbd 9f60 a83b c2db b43b
00000100: ff14 9fbc dbfb d53c ef33 443c be20 073e
00000110: 2323 02bd 136d dc3c 8679 73bd 9770 1e3d
00000120: d3e6 2e3d c1d2 4d3d a2d5 c4bc 344b ebbc
00000130: d6b0 3c3b 05f6 2ebd eee0 9f3d 6119 43bd
00000140: e8b5 57bd aa57 76ba f109 20bd 75c4 ef3c
00000150: c696 3e3d b842 3abd 5182 833f 97db 3a3c
00000160: 6917 973d 522e bebc 6785 ecbd 43fc 873d
00000170: af43 823d 4333 373d 3639 62bd 63b0 49bd
00000180: 65e4 d13d 7e0d 5d3c b967 35bd cf55 9d3c
00000190: 87db 7c3c 92af 0e3e e419 233d b0cf c5bc
000001a0: 0cc2 ca3b 6749 0dbe d90a 10bc bf53 603c
000001b0: 6ed0 a1bc 2900 da3d 6c4b 0d3d c321 ea3c
000001c0: db65 823c 43c6 0ebc 95f6 283d 27b1 893d
000001d0: 8915 e2bc 8f00 7fbc 4773 c33c 875e f8bc
000001e0: c76a bf3c b464 24be 19df 29bd 15b4 bd3c
000001f0: eb23 2a3c 7230 a23c e382 babc 6a88 c93c
00000200: 4a0a c7bc f626 843f b872 86bd a321 8e3c
00000210: 4dfa 3c3d 50b9 f53c 3d1d d3bc 1d3d bc3c
00000220: c9a6 193c 3c27 9c3c 70a9 803d 9b46 973b
00000230: b560 0abc dc0f f63c 34d5 b5bb 0a36 9b3d
00000240: 912d 773c 84d4 ffbb 8880 903d 7269 edbd
00000250: e787 fd3b 5621 7dbc 6581 073c d132 89bd
00000260: 95c3 3dbd 70dc 0ebc 277e 5cbc af9c 23bd
00000270: 8265 b63b 2a2e 053d 49d4 c53c 10d3 9ebc
00000280: d7b5 9bba 9907 823b 12a8 acbc eebf 8ebd
00000290: 520e b73b 0cb0 9a3d 4086 10bc a4f5 86bc
000002a0: d3f1 2a39 349a 8cbc 71a5 863c 409b 65bd
000002b0: c6e0 a23f c57c d9ba 51bb 69be 2b63 ba3a
000002c0: 724b a33b a5f4 95bd 1e02 c2bd e75a 96bc
000002d0: c702 793b 6c61 1f3c 6dc8 30bc 7a00 e93c
000002e0: 8502 273d c507 7dbb 164b 273d 082b f2bc
000002f0: 07b9 29bd a947 8dbd 9351 44bd a06e 563c
00000300: 2ede 48bc 3933 16be 1347 5a3e 6530 1d3d
00000310: ad36 58bd f6fd 0bbd 15ca d63c c702 133d
00000320: 032b 0fbd ba3f c83a a4e4 fcbb 7b33 29bd
00000330: 61f9 053d 970e ee3d 0c27 38bd d14c 273c
00000340: c424 e3bb 9fa8 133d 4b24 633d 2a3b a0bd
00000350: c789 4f3d 93d1 89bc e696 c6bd d020 54bd
00000360: 5a7d 163d 7a23 2dbc 4754 053c bc6b 313d
00000370: 1e1d c9bd 93ac 42bd 5060 aabc 11a6 80bc
00000380: 09bf d9bd 5e5f 063d 10c3 4f3d 58b8 3dbd
00000390: 84f8 d93d 7ba0 1ebd b765 8ebd 5e46 01be
000003a0: b793 c5bc d545 3f3d 9bfc bdbc 9d84 35be
000003b0: 9f29 2f3e a739 773d 6e5b 94bc face 923b
000003c0: dba9 68bd d394 b73d e24f 45bd ca75 353a
000003d0: 70e6 5a3c c3bb 5cbd 91ee 703d 7e9d 2d3e
000003e0: 6e98 83bd a4a3 543d eba5 99bc 23cd 453d
000003f0: 49a1 9b3c 745c d13c 9ab0 b9bb afaf 5cbd

bias f4 [10]
0.06434915 0.10130221 0.045114014 0.04753285 0.03268502 0.05909635 0.14534885 -0.009193156
0.0038272904 0.0029062512
00000000: 7dc9 833d 8877 cf3d 79c9 383d ceb1 423d
00000010: bae0 053d 040f 723d 54d6 143e e49e 16bc
00000020: 47d3 7a3b ce76 3e3b

weight f4 [21, 42, 1, 1]
0.2758327 0.2391123 0.067745686 -0.2674811 -0.02659978 0.005677947 -0.08643909 0.4046715
0.09774069 0.0094792135 -0.07469131 0.0066675637 -0.022271197 0.0014642414 0.087485686 -0.018670335
0.07324275 -0.0402737 0.018496394 0.07447467 -0.06430759 -0.010986085 -0.01216037 0.071143635
0.05061058 0.009724733 -0.038716167 0.028319076 -0.03238684 0.067182474 -0.13050625 -0.00031432082
-0.04068515 -0.010815441 -0.08180806 0.009712289 -0.01288981 -0.0037009679 -0.04444207 0.00623489
-0.1766592 -0.05414143 0.039845932 -0.10628714 0.57357997 0.37782994 -0.14360186 0.2394523
-0.13261482 0.12995571 -0.35851032 0.21225137 -0.03996574 0.004696115 -0.04007783 0.007836221
0.005409211 0.064982064 0.13845555 -0.09773125 0.0015931872 -0.12947266 0.028016062 0.079038166
0.007793464 0.13142373 -0.006726379 -0.04754346 0.043086942 0.0026687025 -0.025914446 0.05502264
-0.039588343 -0.08152306 -0.028784068 -0.005165614 -0.03730046 -0.02186872 -0.052326392 0.086369425
-0.03747501 0.053307652 -0.06896418 -0.0043269754 0.1659055 0.20318863 0.20321213 -0.14726004
0.128294 0.059549566 0.1059281 0.17219375 0.07548543 -0.29183963 -0.065365165 -0.122825384
-0.12678383 -0.06948136 -0.010767604 0.15062885 -0.1527248 -0.12288548 0.004696827 0.002419434
-0.008539712 -0.009166762 0.013133894 -0.014919711 -0.0676486 0.02033927 0.06888654 -0.08584413
-0.29889685 -0.004453211 0.009527244 0.00434634 -0.055602327 -0.056691013 -0.109083116 0.011088161
0.09236477 0.014840204 -0.19532062 -0.1007281 0.0016118655 0.07938053 0.077018976 -0.009846
0.034571007 -0.5167376 0.23929974 -0.037979733 -0.29120103 -0.023206415 0.04427585 -0.023117017
-0.023916593 -0.0450897 -0.14674716 0.08408583 -0.022857118 0.031589255 0.05589776 -0.0010524348
0.014283268 -0.021266164 7.211519e-05 0.18235298 -0.007242245 0.00018937113 0.050498724 -0.06022434
0.10011073 0.03956791 -0.024316257 -0.059946675 0.035704065 -0.008492985 -0.028859869 -0.02571847
0.016955357 -0.07577635 0.022156043 0.055821214 -0.034356166 0.110915504 -0.0702444 0.06684307
0.15346791 -0.090176545 0.30507147 -0.22478223 0.13988349 -0.091628544 -0.041701492 0.24925695
0.2016169 0.22340141 0.05453377 0.03664862 -0.06610336 0.0005550472 -0.01505442 0.072746664
-0.024564972 -0.0670224 0.021610053 0.054519564 0.017744647 -0.010019877 -0.041183893 -0.031125756
0.008019197 0.029570598 0.019921243 0.01884661 0.10749209 -0.02460575 -0.048165504 -0.06324836
-0.00062612485 0.0031766559 -0.031295102 -0.03525164 0.008529492 0.012915362 0.0023265735 0.009411168
0.022566129 0.026006244 0.0010160807 -0.09614221 -0.80785125 -0.011387614 0.2433757 -0.29558393
0.17165282 -0.32297066 0.32317275 0.036925413 -0.04273683 -0.052462257 0.017138867 0.075030476
0.026200827 0.03962224 0.096309796 0.14735454 -0.037812106 -0.04534395 -0.080933034 -0.17387731
-0.040784393 0.056948137 0.019200848 0.18549377 0.017253928 0.07100124 0.012827675 0.033647407
-0.029745538 -0.03832837 0.007196601 -0.024741318 -0.10246291 0.00063509063 0.021432042 -0.04418099
-0.04386393 -0.04832158 -0.19822633 -0.03967102 -0.032242786 -0.09586705 -0.17713965 0.24643688
00000000: f239 8d3e dbd9 743e 40be 8a3d 48f3 88be
00000010: c8e7 d9bc 120e ba3b fa06 b1bd 1a31 cf3e
00000020: 452c c83d b44e 1b3c c2f7 98bd 947b da3b
00000030: 1672 b6bc caeb bf3a b22b b33d 88f2 98bc
00000040: 4b00 963d 09f6 24bd c085 973c 2d86 983d
00000050: b3b3 83bd fbfe 33bc 4a3c 47bc c1b3 913d
00000060: 0a4d 4f3d 7d54 1f3c d894 1ebd 68fd e73c
00000070: 10a8 04bd f796 893d 6ea3 05be 6dcb a4b9
00000080: 79a5 26bd 3f33 31bc fc8a a7bd 4b20 1f3c
00000090: c82f 53bc f08b 72bb e308 36bd 0c4e cc3b
000000a0: 26e6 34be 67c3 5dbd 7d35 233d 12ad d9bd
000000b0: 23d6 123f ed72 c13e 5e0c 13be fc32 753e
000000c0: 2ecc 07be 1c13 053e aa8e b7be 6c58 593e
000000d0: 1eb3 23bd dee1 993b a728 24bd 7e63 003c
000000e0: c03f b13b 5115 853d 4bc7 0d3e 5227 c8bd
000000f0: 7ed2 d03a 7b94 04be f181 e53c c3de a13d
00000100: 5160 ff3b f193 063e f568 dcbb eebc 42bd
00000110: ef7b 303d 66e5 2e3b 884a d4bc 6b5f 613d
00000120: 6327 22bd 90f5 a6bd 91cc ebbc 5044 a9bb
00000130: 5ec8 18bd 0826 b3bc 3354 56bd 74e2 b03d
00000140: 657f 19bd 2059 5a3d 183d 8dbd 4dc9 8dbb
00000150: 22e3 293e ae10 503e d716 503e 56cb 16be
00000160: 815f 033e 3fea 733d d5f0 d83d 8f53 303e
00000170: 1b98 9a3d 016c 95be 2cde 85bd e08b fbbd
00000180: 9fd3 01be 3e4c 8ebd 9b6a 30bc 733e 1a3e
00000190: e463 1cbe 62ab fbbd d7e7 993b 5e8f 1e3b
000001a0: 26ea 0bbc 3030 16bc 8b2f 573c ce71 74bc
000001b0: 598b 8abd 8a9e a63c 6314 8d3d 0ccf afbd
000001c0: 0209 99be 3eec 91bb 2818 1c3c be6b 8e3b
000001d0: 44bf 63bd d634 68bd f866 dfbd 1eab 353c
000001e0: be29 bd3d 5424 733c 2102 48be 894a cebd
000001f0: 3b45 d33a 4292 a23d 20bc 9d3d 1e51 21bc
00000200: 549a 0d3d ea48 04bf fe0a 753e a390 1bbd
00000210: 4d18 95be 611b bebc 985a 353d e65f bdbc
00000220: bbec c3bc faaf 38bd e344 16be 3135 ac3d
00000230: da3e bbbc bc63 013d 0df5 643d daf1 89ba
00000240: 5e04 6a3c 6136 aebc 8c3c 9738 bdba 3a3e
00000250: 5b50 edbb ed91 4639 c0d7 4e3d ccad 76bd
00000260: db06 cd3d f611 223d e332 c7bc a58a 75bd
00000270: 6d3e 123d 2926 0bbc 886b ecbc 8aaf d2bc
00000280: f6e5 8a3c a230 9bbd 9780 b53c c9a4 643d
00000290: 0db9 0cbd ab27 e33d 4cdc 8fbd 05e5 883d
000002a0: b126 1d3e 7bae b8bd 5432 9c3e 502d 66be
000002b0: 9e3d 0f3e bfa7 bbbd 2fcf 2abd 373d 7f3e
000002c0: a974 4e3e 57c3 643e cd5e 5f3d dd1c 163d
000002d0: 3361 87bd 9680 113a d0a6 76bc 34fc 943d
000002e0: 7b3c c9bc 0a43 89bd 9107 b13c e84f 5f3d
000002f0: 395d 913c 692a 24bc 71b0 28bd 71fb febc
00000300: f362 033c 0a3e f23c e031 a33c 3564 9a3c
00000310: d024 dc3d ff91 c9bc 3149 45bd 5b88 81bd
00000320: 8722 24ba 712f 503b 4b2f 00bd 0664 10bd
00000330: 48bf 0b3c f49a 533c 6d79 183b 4d31 1a3c
00000340: 9adc b83c 0c0b d53c 032e 853a 35e6 c4bd
00000350: 57cf 4ebf 1d93 3abc 7b37 793e c756 97be
00000360: c2c5 2f3e 695c a5be e676 a53e 1a3f 173d
00000370: d00c 2fbd aae2 56bd cf66 8c3c 94a9 993d
00000380: 1ea3 d63c ee4a 223d 123e c53d 1ce4 163e
00000390: dee0 1abd 94ba 39bd 38c0 a5bd e50c 32be
000003a0: 890d 27bd 7342 693d 194b 9d3c 14f2 3d3e
000003b0: 1c58 8d3c 1969 913d 2b2b 523c ddd1 093d
000003c0: eaac f3bc 35fe 1cbd 77d1 eb3b 4eae cabc
000003d0: 13d8 d1bd 367c 263a 4092 af3c 20f7 34bd
000003e0: aaaa 33bd d9ec 45bd d8fb 4abe 147e 22bd
000003f0: 0311 04bd f255 c4bd 1964 35be f359 7c3e

bias f4 [21]
-0.019253537 0.19781266 0.2533995 0.15417144 0.053649385 0.21200547 -0.0071093896 0.8536952
0.32518685 -0.13257353 0.34136835 0.07146589 -0.05155899 0.26973048 -0.0046955924 -0.6269415
0.330553 0.022664327 0.16865516 0.84455043 0.25708702
00000000: 98b9 9dbc 678f 4a3e 94bd 813e 1edf 1d3e
00000010: 75bf 5b3d f617 593e e2f5 e8bb c58b 5a3f
00000020: e47e a63e 5bc1 07be d5c7 ae3e b55c 923d
00000030: 852f 53bd 1d1a 8a3e 7cdd 99bb 3d7f 20bf
00000040: 3e3e a93e 8aaa b93c f0b3 2c3e 7534 583f
00000050: e9a0 833e

weight f4 [42, 42, 3, 3]
-0.065540336 2.7473372e-05 -0.035276596 -0.09573631 -0.0040116054 -0.095334545 -0.074619 -0.0593198
-0.14966904 0.04707734 -0.046636436 0.064984575 0.012565868 -0.031142151 0.019469732 0.011243896
0.017947735 -0.014873148 0.026585506 0.07011985 -0.03311609 -0.047268923 -0.016256947 -0.021114903
0.013536669 0.16225252 0.055442415 -0.05460677 -0.030371344 0.075409085 0.058622338 0.032750726
0.055236317 -0.041702583 -0.01775772 -0.06902606 0.023536982 -0.034645155 0.043631904 0.06573497
-0.10166871 0.09145066 0.047232475 0.09566367 -0.009097904 0.011715043 0.010546265 0.029763458
0.01448359 -0.0546602 0.10376161 -0.037610203 -0.11940871 -0.063006915 -0.021799827 0.008093746
0.013718046 0.10796337 0.040736746 0.06027741 0.027884962 -0.037558217 -0.059574228 -0.10736845
-0.015798392 0.041752152 -0.05859806 0.12975624 -0.027435083 -0.056198675 0.10756134 -0.062704004
-0.01970898 0.020245893 0.11511935 -0.069765456 -0.01698644 0.009660326 -0.003013031 0.04568648
0.008889214 -0.019434813 0.019226104 -0.032689914 -0.030617842 0.045829516 0.03080419 0.055365764
0.006920187 -0.015969478 -0.022240283 0.031430863 0.010926487 -4.671569e-05 -0.024468398 -0.018538227
0.041899938 -0.020846117 -0.03506169 -0.035330385 -0.030269459 0.035315145 -0.16359425 -0.059589688
0.047742374 -0.06261755 0.067921616 0.04360503 -0.01706309 -0.062042486 0.027507173 0.008110377
0.023480091 0.050252635 -0.00572394 0.06192547 0.05791432 -0.01070475 0.03684567 0.012152545
0.0184905 0.043099277 0.071293615 0.027488077 0.09445551 0.04842408 0.0452236 -0.0239022
0.1222375 0.08499195 -0.11718156 0.14897592 0.053578954 -0.010818934 0.089064956 -0.06086401
-0.031874068 -0.04348186 -0.058796138 -0.016995179 -0.037665013 0.018396882 -0.00946575 0.083710656
0.07070992 0.08746349 0.08340749 0.02532479 0.10979878 0.07753255 0.052622102 0.067205675
0.04882461 -0.036139037 0.0006610302 0.03356506 -0.117107436 0.08333317 -0.1065992 -0.022015506
-0.01741284 -0.08444617 -0.02582016 -0.08750439 -0.023150524 -0.020472474 0.067084156 0.0724294
-0.038418874 0.04541369 0.024869863 -0.05500716 -0.16635382 0.022850813 -0.016565818 -0.07698582
0.05080379 0.043592054 0.059540503 0.059769537 0.09834933 0.15091494 -0.02324856 -0.045577593
-0.016669303 -0.028418994 -0.017860604 -0.09761792 -0.03243027 -0.0070666643 0.100775704 -0.028777562
0.019085249 -0.03752046 -0.025104988 0.060568385 0.079785615 0.08632023 -0.035503916 -0.04205674
-0.04671576 0.029080775 -0.08085935 -0.03198226 0.038092416 0.008774753 -0.019247986 0.07628436
-0.03148515 0.04327865 0.009125786 0.13264109 0.025740162 -0.00971202 0.06854594 0.029993964
-0.05686147 -0.0098884795 -0.017877722 -0.03247228 -0.121968254 0.01613307 -0.029828513 0.05976948
0.027808495 0.025265617 0.027036352 -0.020240813 -0.05693916 -0.15758437 -0.03837472 0.00013719109
0.012475528 0.02797862 -0.0785411 -0.13633017 -0.11239815 -0.019127356 -0.03300353 0.018273968
-0.024611924 0.16373123 0.07733791 -0.029450959 -0.024279177 -0.00493281 -0.019666603 0.034795444
-0.022305353 0.09691384 0.088588685 0.023898676 0.047976747 -0.00064013165 -0.08265111 0.0195706
00000000: 033a 86bd 9e76 e637 317e 10bd 6611 c4bd
00000010: c973 83bb c23e c3bd d9d1 98bd 52f9 72bd
00000020: d742 19be 2bd4 403d d905 3fbd a216 853d
00000030: 12e1 4d3c d31d ffbc fd7e 9f3c 5138 383c
00000040: 2107 933c 81ae 73bc d9c9 d93c ff9a 8f3d
00000050: bda4 07bd 0f9d 41bd 4a2d 85bc 29f9 acbc
00000060: e8c8 5d3c 8625 263e 9617 633d 59ab 5fbd
00000070: 53cd f8bc 1470 9a3d fa1d 703d a025 063d
00000080: 7a3f 623d 54d0 2abd a378 91bc 895d 8dbd
00000090: a1d0 c03c 14e8 0dbd 5eb7 323d 0ea0 863d
000000a0: af37 d0bd 7c4a bb3d d776 413d 50eb c33d
000000b0: 600f 15bc 74f0 3f3c 3eca 2c3c 7fd2 f33c
000000c0: 944c 6d3c 60e3 5fbd f880 d43d 280d 1abd
000000d0: 8e8c f4bd c509 81bd 8d95 b2bc a29b 043c
000000e0: a8c1 603c e61b dd3d 93db 263d 72e5 763d
000000f0: 016f e43c a5d6 19bd 1b04 74bd fde3 dbbd
00000100: a16b 81bc 4e04 2b3d 8504 70bd d2de 043e
00000110: 8abf e0bc 9530 66bd 1f49 dc3d f56a 80bd
00000120: ba74 a1bc b7da a53c b2c3 eb3d 31e1 8ebd
00000130: 2627 8bbc 5846 1e3c 4676 45bb bf21 3b3d
00000140: 11a4 113c c235 9fbc 1080 9d3c dce5 05bd
00000150: 45d2 fabc bbb7 3b3d 1259 fc3c 36c7 623d
00000160: bcc2 e23b 6cd2 82bc 4131 b6bc a6bd 003d
00000170: 0205 333c 97f0 43b8 f371 c8bc 7bdd 97bc
00000180: 459f 2b3d 7ac5 aabc d99c 0fbd 98b6 10bd
00000190: a8f7 f7bc 9da6 103d 4085 27be 5114 74bd
000001a0: 828d 433d a13d 80bd 7d1a 8b3d 309b 323d
000001b0: e5c7 8bbc 4320 7ebd b956 e13c 63e1 043c
000001c0: 5259 c03c b5d5 4d3d e48f bbbb 90a5 7d3d
000001d0: 9137 6d3d fa62 2fbc 7ceb 163d 781b 473c
000001e0: 6479 973c de88 303d 6302 923d ad2e e13c
000001f0: e471 c13d 5458 463d 623c 393d 8cce c3bc
00000200: a857 fa3d 4210 ae3d e3fc efbd 258d 183e
00000210: 9b75 5b3d e641 31bc b067 b63d 8a4c 79bd
00000220: 628e 02bd 091a 32bd 38d4 70bd 7939 8bbc
00000230: a146 1abd 0fb5 963c 3c16 1bbc 7e70 ab3d
00000240: 5dd0 903d 0f20 b33d 8cd1 aa3d ef75 cf3c
00000250: 2fde e03d 63c9 9e3d 468a 573d 21a3 893d
00000260: 50fc 473d 8706 14bd fc48 2d3a 847b 093d
00000270: 06d6 efbd 95aa aa3d ae50 dabd dd59 b4bc
00000280: 5fa5 8ebc 1df2 acbd cd84 d3bc 8035 b3bd
00000290: 2ba6 bdbc e4b5 a7bc 6b63 893d de55 943d
000002a0: 1c5d 1dbd b503 3a3d e2bb cb3c 304f 61bd
000002b0: a858 2abe a131 bb3c 0ab5 87bc beaa 9dbd
000002c0: a317 503d 958d 323d bee0 733d e7d0 743d
000002d0: 606b c93d 7289 1a3e c473 bebc 92af 3abd
000002e0: 108e 88bc f3ce e8bc 6750 92bc e7eb c7bd
000002f0: 9ad5 04bd 7a8f e7bb 7e63 ce3d ecbe ebbc
00000300: ab58 9c3c 0eaf 19bd faa8 cdbc 8e16 783d
00000310: a466 a33d a9c8 b03d 8e6c 11bd b043 2cbd
00000320: 0659 3fbd ce3a ee3c 9699 a5bd d5ff 02bd
00000330: cb06 1c3d fbc3 0f3c f4ad 9dbc f93a 9c3d
00000340: 93f6 00bd f444 313d 5284 153c 11d3 073e
00000350: 08dd d23c 2a1f 1fbc d061 8c3d e7b5 f53c
00000360: 93e7 68bd 4a03 22bc 4d74 92bc a701 05bd
00000370: 7eca f9bd 8029 843c ed5a f4bc d8d0 743d
00000380: a4ce e33c d7f9 ce3c 577b dd3c 10d0 a5bc
00000390: 0939 69bd cc5d 21be cf2e 1dbd f4da 0f39
000003a0: 2866 4c3c 6b33 e53c 28da a0bd 239a 0bbe
000003b0: 0031 e6bd f9b0 9cbc b62e 07bd 4ab3 953c
000003c0: f29e c9bc 29a9 273e 5763 9e3d 2343 f1bc
000003d0: 20e5 c6bc 69a3 a1bb db1b a1bc ab85 0e3d
000003e0: b7b9 b6bc c37a c63d fc6d b53d 28c7 c33c
000003f0: 4483 443d 82ce 27ba fc44 a9bd 8652 a03c

bias f4 [42]
0.4445291 0.20614482 0.0009378676 -0.018561797 0.15214881 0.27042684 0.38993746 0.37816378
-0.18894511 -0.33322424 0.23387039 0.006623292 -1.6939325 0.00062786747 0.3634325 0.31105176
0.075346045 0.09229998 0.24540772 -0.11018739 0.17182583 -0.073583536 0.11271465 0.26601174
0.38456926 -0.3351922 -0.07813725 0.05504646 0.16331577 0.61934775 -0.10445634 -0.114924744
0.02589368 0.3987591 -0.14637579 0.40155435 0.032919478 -0.10504471 0.09149055 -1.1292794
-0.102623224 0.2914436
00000000: 5199 e33e a117 533e 3bdb 753a e90e 98bc
00000010: e6cc 1b3e 6375 8a3e e2a5 c73e af9e c13e
00000020: d47a 41be 5e9c aabe b87b 6f3e 3308 d93b
00000030: c8d2 d8bf 7997 243a d313 ba3e 2d42 9f3e
00000040: 074f 9a3d c607 bd3d 294c 7b3e eda9 e1bd
00000050: 1cf3 2f3e f7b2 96bd f0d6 e63d b132 883e
00000060: 43e6 c43e 509e abbe 6c06 a0bd 6678 613d
00000070: 403c 273e 938d 1e3f 35ed d5bd aa5d ebbd
00000080: fc1e d43c 272a cc3e 89e3 15be 8898 cd3e
00000090: 93d6 063d ae21 d7bd 665f bb3d 3a8c 90bf
000000a0: 202c d2bd 1838 953e

weight f4 [21, 42, 1, 1]
0.018371642 0.013267003 -0.086353436 -0.00060054124 -0.059241854 0.010561568 0.01439466 -0.027039655
0.026798101 0.39908403 -0.07146334 -0.05953059 -0.01487823 0.05990923 0.023297604 -0.007908773
0.013977087 -0.062850304 -0.009479599 0.15130751 0.045011587 0.02693641 0.17526506 -0.019492168
0.046929207 -0.050815795 0.056810223 0.0026075065 0.06732017 0.029048968 -0.0033584815 -0.03151026
-0.008695787 0.031992212 0.11216177 0.014206435 -0.007428928 0.018451432 -0.023652332 -0.0053253337
0.070126295 0.11355412 -0.044026583 0.040671375 0.033034835 0.038532056 0.116233654 0.019719865
0.08995164 -0.017353738 -0.04289212 -0.062003713 -0.039353866 -0.02633608 -0.31001538 -0.08435421
-0.019795192 0.007103216 0.063543975 0.03520874 0.0342153 0.06644241 0.014479523 0.018718455
0.06435743 0.080302715 0.08117318 0.03613954 -0.0417025 -0.03960342 -0.060786825 -0.117263615
-0.024296952 0.066185586 0.049137454 0.04201841 0.08858849 0.082849905 0.09528672 -0.07567953
0.07148915 -0.06388539 -0.09567238 -0.06040838 0.068749316 -0.053183593 -0.0500456 -0.2760149
-0.09736683 -0.2587982 -0.26503286 -0.055653196 -0.062504426 -0.07568451 -0.043572146 -0.04687038
0.0475349 -0.07919959 -0.21210015 -0.010792499 -0.037277076 0.23591478 -0.008659523 -0.36119565
-0.03246529 -0.074563354 -0.28319094 -0.0028941727 0.04852681 0.24908146 -0.16721208 0.012006578
-0.23194186 -0.072518736 -0.1751014 -0.21901907 0.017756263 -0.111105606 0.17738216 0.032488577
0.081107356 0.2869114 0.028218552 -0.07855754 -0.038803965 -0.19073771 0.04195695 -0.042128183
-0.062477734 0.1362927 -0.03396067 -0.028090974 0.03174328 0.050884306 0.0065890797 0.037643865
-0.086672574 0.029843679 0.110329084 -0.1316127 -0.046917316 -0.061771225 -0.041313984 0.06392446
0.011811047 0.12203772 0.05673049 0.061295927 0.0612312 0.021259792 -0.03618059 0.2661526
-0.04748505 0.02912468 -0.027749846 0.3116954 0.1263676 -0.02880349 -0.017719999 0.04432834
-0.0049430616 0.0528512 -0.0033260297 0.21842474 0.017634429 -0.13180576 0.1618739 0.049650155
-0.06048027 0.050996944 0.06413903 -0.06825827 -0.07164826 -0.01953621 -0.0943606 -0.03892092
0.022827076 0.18404822 -0.013084476 0.046092167 -0.010650823 -0.012340567 0.1747427 0.05560567
0.030911477 0.01041094 -0.10313375 0.037399605 -0.014460259 0.0009027043 0.08823893 0.1459039
-0.05464329 0.09764386 -0.01323369 0.052788768 -0.09770866 0.07056802 0.07383156 -0.063718826
-0.040266376 -0.039456025 -0.082735434 0.021204373 0.041127827 0.108592935 0.008840423 0.081662804
0.119252555 -0.06383836 -0.007279926 0.027968023 0.06816682 -0.06209729 0.057695936 -0.006341381
-0.03111199 -0.02708973 0.044908326 -0.006938647 -0.087416954 -0.059834253 0.017782303 -0.03841053
0.003783744 -0.042202957 -0.04436374 0.057060145 -0.0066970736 0.08961071 0.04415401 0.0082819555
0.11710469 -0.017833682 -0.0917511 -0.1178085 -0.019069139 0.058992155 0.038588572 -0.36189586
-0.062148552 -0.45979708 0.016624043 -0.031438764 -0.32149875 -0.021920519 0.047432035 -0.014333194
0.035241775 0.07752755 0.13491237 0.18115045 0.06321766 0.013213237 -0.009004194 0.09578799
00000000: 2080 963c d85d 593c 12da b0bd a46d 1dba
00000010: 96a7 72bd 6d0a 2d3c 94d7 6b3c 4482 ddbc
00000020: b187 db3c be54 cc3e 5f5b 92bd 59d6 73bd
00000030: d2c3 73bc 6163 753d 9eda be3c cc93 01bc
00000040: 2700 653c a9b7 80bd 5250 1bbc 5bf0 1a3e
00000050: 125e 383d bfa9 dc3c af78 333e 0aae 9fbc
00000060: d738 403d 3924 50bd d6b1 683d b3e2 2a3b
00000070: 28df 893d 1af8 ed3c f819 5cbb e710 01bd
00000080: c678 0ebc 440a 033d 12b5 e53d 1bc2 683c
00000090: 5d6e f3bb 7527 973c 89c2 c1bc 2380 aebb
000000a0: 609e 8f3d 108f e83d 3855 34bd 0797 263d
000000b0: 894f 073d cad3 1d3d e90b ee3d 8e8b a13c
000000c0: 9138 b83d 6d29 8ebc a6af 2fbd 9bf7 7dbd
000000d0: 8531 21bd c3be d7bc 56ba 9ebe e6c1 acbd
000000e0: 8729 a2bc 18c2 e83b 5823 823d 0a37 103d
000000f0: 5825 0c3d f512 883d 853b 6d3c 7257 993c
00000100: d4cd 833d c075 a43d 203e a63d 0e07 143d
00000110: 3ed0 2abd 3237 22bd 9bfb 78bd e827 f0bd
00000120: 670a c7bc 4f8c 873d 5b44 493d 7f1b 2c3d
00000130: e26d b53d 36ad a93d af25 c33d dffd 9abd
00000140: e768 923d 58d6 82bd e1ef c3bd c76e 77bd
00000150: 71cc 8c3d 0ad7 59bd 9dfc 4cbd d351 8dbe
00000160: 4368 c7bd 3381 84be 63b2 87be 9bf4 63bd
00000170: 5202 80bd 7b00 9bbd b578 32bd 28fb 3fbd
00000180: f5b3 423d 6533 a2bd c830 59be 06d3 30bc
00000190: d9af 18bd a593 713e ace0 0dbc a3ee b8be
000001a0: 53fa 04bd acb4 98bd 67fe 90be 29ac 3dbb
000001b0: 0cc4 463d 360f 7f3e a539 2bbe 3db7 443c
000001c0: 2b82 6dbe b484 94bd c84d 33be 8946 60be
000001d0: 9575 913c 568b e3bd aba3 353e be12 053d
000001e0: 9d1b a63d 0de6 923e 982a e73c c7e2 a0bd
000001f0: e8f0 1ebd bf50 43be 0ddb 2b3d 9a8e 2cbd
00000200: a7e8 7fbd 5090 0b3e 581a 0bbd 0b1f e6bc
00000210: 3e05 023d 106c 503d 35e9 d73b 7430 1a3d
00000220: 6481 b1bd bb7a f43c 37f4 e13d 7bc5 06be
00000230: 5f2c 40bd d303 7dbd da38 29bd d4ea 823d
00000240: 1f83 413c eaee f93d 3b5e 683d 7011 7b3d
00000250: 91cd 7a3d 0429 ae3c 1932 14bd 2745 883e
00000260: af7f 42bd e296 ee3c a553 e3bc 8a96 9f3e
00000270: 8266 013e 4cf5 ebbc 8829 91bc a291 353d
00000280: 68f9 a1bb 807a 583d 85f9 59bb bcaa 5f3e
00000290: 1476 903c 17f8 06be 46c2 253e f65d 4b3d
000002a0: 29ba 77bd 2ce2 503d 535b 833d feca 8bbd
000002b0: 53bc 92bd 670a a0bc 2140 c1bd 8b6b 1fbd
000002c0: d9ff ba3c 2377 3c3e 4560 56bc 24cb 3c3d
000002d0: ca80 2ebc 1730 4abc c0ef 323e c5c2 633d
000002e0: 113a fd3c a692 2a3c ca37 d3bd 5430 193d
000002f0: b9ea 6cbc 76a3 6c3a 9db6 b43d d567 153e
00000300: a4d1 5fbd 81f9 c73d 1ed2 58bc 0939 583d
00000310: 7a1b c8bd f785 903d 0035 973d 047f 82bd
00000320: 5bee 24bd a49c 21bd 3271 a9bd cbb4 ad3c
00000330: a775 283d f965 de3d 6cd7 103c d43e a73d
00000340: af3a f43d b0bd 82bd 728c eebb 321d e53c
00000350: 0c9b 8b3d ba59 7ebd 9352 6c3d 5ccb cfbb
00000360: 92de febc 48eb ddbc cbf1 373d 975d e3bb
00000370: a907 b3bd c314 75bd 31ac 913c 5c54 1dbd
00000380: b1f8 773b 02dd 2cbd c1b6 35bd e6b7 693d
00000390: 2073 dbbb d285 b73d d6da 343d 0ab1 073c
000003a0: 95d4 ef3d f117 92bc 00e8 bbbd 9545 f1bd
000003b0: e236 9cbc c2a1 713d 0d0f 1e3d 6a4a b9be
000003c0: 7b8f 7ebd 866a ebbe 252f 883c efc5 00bd
000003d0: 7c9b a4be a992 b3bc 1848 423d c6d5 6abc
000003e0: ae59 103d c4c6 9e3d 7826 0a3e 817f 393e
000003f0: 4378 813d 557c 583c 5486 13bc 7e2c c43d

bias f4 [21]
0.49138322 0.30353487 0.20831358 0.06713122 0.24160711 -0.25118423 0.12006697 -0.24006362
0.004034911 0.527919 0.61953473 0.4120797 -0.13127877 0.5215037 -0.46344927 0.7535372
0.20116563 0.13069385 0.34555107 0.18536712 0.06649139
00000000: 9596 fb3e ec68 9b3e 2850 553e 187c 893d
00000010: db67 773e 389b 80be ace5 f53d 3dd3 75be
00000020: 4937 843b b325 073f d499 1e3f 1cfc d23e
00000030: f16d 06be 4481 053f 3949 edbe d0e7 403f
00000040: 5dfe 4d3e 9cd4 053e 12ec b03e e1d0 3d3e
00000050: a32c 883d

weight f4 [42, 42, 3, 3]
-0.12546244 -0.023294378 -0.1447281 0.051206972 -0.4152946 -0.00025544126 -0.146299 -0.07546791
-0.16068003 0.07869812 0.14114173 -0.02066617 0.018575102 -0.0065077976 0.048886843 0.11110343
0.0011729306 -0.010838844 -0.111887775 -0.079998605 -0.012795505 0.048626773 -0.03993953 -0.06996887
0.068064734 0.10264718 0.05969547 -0.081359126 0.014409298 -0.12552217 0.037304245 0.23259768
-0.233223 -0.0026404732 0.014473241 -0.10253326 -0.006588662 0.08981077 -0.011603616 -0.009966124
0.04071401 0.050845195 -0.000531868 -0.05715128 0.019203534 -0.07823817 0.036431983 0.08202348
-0.067698956 0.012558294 0.09821371 -0.04974521 -0.008578468 0.0953229 -0.081793085 -0.072410606
0.021798179 -0.07339925 -0.006907348 -0.036379308 -0.03135118 -0.023357205 0.012516541 0.03108746
-0.1409648 -0.081714116 0.07389954 -0.008713824 -0.09722592 0.020864002 -0.035365433 -0.027726265
0.05699868 -0.0033188476 -0.051833853 0.065172344 -0.07341196 -0.021051833 0.026113238 -0.009881146
0.0320845 0.019932164 0.015507446 0.014033828 0.08377636 0.061687686 0.0052384716 0.081982955
0.051445436 0.03712008 0.1472792 -0.13190454 0.07363986 0.14374137 -0.23918325 0.06481674
0.16148004 -0.26797876 0.061174154 0.012864355 0.020931572 -0.08055811 0.010689855 -0.043191243
0.0028873736 0.07555329 0.061049942 -0.028459279 -0.020536708 0.021668235 0.019855602 -0.03543795
-0.023542734 -0.044234112 -0.0071913665 -0.036174946 -0.06506755 -0.051727843 -0.124716006 0.112571746
0.046501365 0.077857405 -0.069859095 -0.091515034 0.0501587 0.11864161 -0.012142524 -0.033414416
0.09867853 0.06527103 -0.122512735 0.07331087 0.065968804 0.0017199297 0.054266468 0.006901437
-0.17146996 -0.035685897 -0.012788213 -0.12027151 0.0039362395 0.060551148 -0.086420126 -0.13499522
0.10982214 -0.10603961 0.011659504 0.07930183 -0.20259564 -0.052975986 0.14851868 -0.49556357
0.008061646 0.047552712 0.17871845 -0.020847583 -0.073073454 0.08896705 -0.21704358 -0.022247236
0.14786018 0.02596886 -0.004430087 -0.016996404 0.08580688 -0.045829922 0.071602695 0.03394234
-0.05105706 0.036856566 -0.03098168 0.034084156 0.066754915 -0.035609085 -0.12918377 0.08782175
0.049393594 0.023842843 0.0743718 -0.017086506 0.07120118 0.08250681 -0.11562685 0.07439994
0.06068796 -0.0785153 -0.24616387 -0.026951876 -0.15836826 0.033635315 -0.13857482 0.059795294
0.060797043 -0.112428464 0.075199604 0.107998595 0.038546246 0.092446804 0.069309145 -0.08391213
-0.053127225 -0.10794948 -0.21916977 0.18612835 0.1968246 -0.1357947 -0.17261145 0.08369507
-0.013777232 -0.007893648 0.15906616 -0.01544487 0.07465317 0.05136756 -0.1392035 0.15166064
-0.16499756 0.19380756 -0.022472583 -0.13517746 0.26882905 -0.03167644 -0.2093505 0.015692456
-0.034194224 0.047142632 -0.07130924 -0.026495103 0.026328413 -0.2807636 0.395647 0.02698807
-0.08844325 0.021909885 0.08300728 0.006713614 0.038719468 0.17444105 0.18267813 0.0110920835
0.02845624 0.16280758 0.13033915 0.080630556 0.0005597116 0.04713465 0.015949557 0.008383977
0.14000809 0.06588122 0.05475352 0.04868195 -0.06815578 0.1785544 -0.07086666 -0.0026453326
00000000: 3a79 00be dad3 bebc 9a33 14be 67be 513d
00000010: 7ea1 d4be bfec 85b9 68cf 15be eb8e 9abd
00000020: 4e89 24be 7b2c a13d 7587 103e 1a4c a9bc
00000030: d02a 983c 5d3f d5bb 923d 483d 328a e33d
00000040: 05bd 993a 6895 31bc 6b25 e5bd 4fd6 a3bd
00000050: 3da4 51bc de2c 473d a297 23bd d74b 8fbd
00000060: 8665 8b3d af38 d23d 3d83 743d 9d9f a6bd
00000070: fa14 6c3c e288 00be 56cc 183d 162e 6e3e
00000080: 03d2 6ebe ca0b 2dbb 2c21 6d3c f5fc d1bd
00000090: b4e5 d7bb b5ee b73d 181d 3ebc f448 23bc
000000a0: bcc3 263d 0d43 503d 0f6d 0bba 7617 6abd
000000b0: bb50 9d3c 553b a0bd b439 153d edfb a73d
000000c0: c0a5 8abd 4ec1 4d3c 4524 c93d a2c1 4bbd
000000d0: b48c 0cbc a738 c33d 2283 a7bd 034c 94bd
000000e0: 1892 b23c 5952 96bd 0957 e2bb 7802 15bd
000000f0: 186a 00bd 9c57 bfbc 2e12 4d3c 21ab fe3c
00000100: 1459 10be bb59 a7bd a458 973d 6dc4 0ebc
00000110: 621e c7bd fcea aa3c 58db 10bd 3122 e3bc
00000120: 7377 693d 0681 59bb bc4f 54bd 1479 853d
00000130: 0259 96bd e574 acbc 6eeb d53c 88e4 21bc
00000140: 096b 033d c748 a33c f112 7e3c 24ee 653c
00000150: f192 ab3d 3aac 7c3d 7ca7 ab3b aee6 a73d
00000160: 73b8 523d 3a0b 183d 5cd0 163e fc11 07be
00000170: 7fd0 963d f030 133e 74ec 74be a4be 843d
00000180: 065b 253e 8334 89be c091 7a3d 04c5 523c
00000190: b078 ab3c a6fb a4bd 8024 2f3c 4de9 30bd
000001a0: 173a 3d3b afbb 9a3d 810f 7a3d 6f23 e9bc
000001b0: 993c a8bc 9581 b13c 37a8 a23c 6227 11bd
000001c0: b1dc c0bc d42e 35bd 8ea5 ebbb 2e2c 14bd
000001d0: 2342 85bd 93e0 53bd 1b6b ffbd 048c e63d
000001e0: 3778 3e3d b473 9f3d 4912 8fbd 3c6c bbbd
000001f0: 3673 4d3d 5ffa f23d 70f1 46bc 8edd 08bd
00000200: f817 ca3d d1ac 853d f5e7 fabd 0224 963d
00000210: a71a 873d 446f e13a 8446 5e3d 7325 e23b
00000220: d295 2fbe 602b 12bd a785 51bc e950 f6bd
00000230: 92fb 803b 7b04 783d 09fd b0bd 303c 0abe
00000240: 6eea e03d 4c2b d9bd 8107 3f3c ff68 a23d
00000250: 3b75 4fbe 59fd 58bd 4815 183e 82ba fdbe
00000260: fe14 043c a2c6 423d f801 373e 8dc8 aabc
00000270: 89a7 95bd 5b34 b63d ac40 5ebe d63f b6bc
00000280: a968 173e a6bc d43c 432a 91bb 0b3c 8bbc
00000290: 84bb af3d 28b8 3bbd 6fa4 923d 2007 0b3d
000002a0: 3521 51bd e9f6 163d 4bcd fdbc d49b 0b3d
000002b0: cdb6 883d d5da 11bd c048 04be e4db b33d
000002c0: f050 4a3d 1152 c33c 3e50 983d 00f9 8bbc
000002d0: edd1 913d 55f9 a83d c5cd ecbd ff5e 983d
000002e0: f093 783d a1cc a0bd 6212 7cbe 2eca dcbc
000002f0: 4a2b 22be 2fc5 093d 8fe6 0dbe e9eb 743d
00000300: 5206 793d e540 e6bd 4002 9a3d 5e2e dd3d
00000310: abe2 1d3d c054 bd3d f4f1 8d3d 1fda abbd
00000320: ef9b 59bd 9e14 ddbd 0a6e 60be 6e98 3e3e
00000330: 638c 493e c40d 0bbe 0ec1 30be 5268 ab3d
00000340: e6b9 61bc 5c54 01bc 3de2 223e 7b0c 7dbc
00000350: c3e3 983d ca66 523d 5d8b 0ebe ed4c 1b3e
00000360: 1ff5 28be 7d75 463e 6c18 b8bc f66b 0abe
00000370: f6a3 893e 28bf 01bd fa5f 56be 778d 803c
00000380: 3e0f 0cbd a218 413d 940a 92bd 420c d9bc
00000390: afae d73c 3fc0 8fbe 3e92 ca3e 1616 dd3c
000003a0: bc21 b5bd 5c7c b33c b9ff a93d e0fd db3b
000003b0: 4e98 1e3d ada0 323e fa0f 3b3e 92bb 353c
000003c0: 101d e93c 08b7 263e a077 053e a221 a53d
000003d0: 9cb9 123a 4310 413d a5a8 823c f35c 093c
000003e0: 485e 0f3e bcec 863d 3a45 603d b966 473d
000003f0: 4295 8bbd f7d6 363e 8a22 91bd 515d 2dbb

bias f4 [42]
0.112938195 0.3287405 0.2529781 0.6755363 0.15247937 0.21088886 0.36113316 0.8918465
0.5013316 0.3229797 0.09980347 0.1022653 0.1379554 -0.19860649 0.12905523 0.104381315
-0.07888844 0.047174603 -0.21850835 0.21267907 0.22135504 0.08083002 -0.3991851 0.17739084
-0.11190173 -0.09217699 0.73956597 -0.17624672 0.10911662 -0.5890608 0.21029466 0.10419974
-0.32344103 0.1934144 0.05114897 0.1360363 0.31706056 0.09595037 0.15722907 -0.61228895
0.04152394 0.044162765
00000000: 244c e73d ad50 a83e 5886 813e f2ef 2c3f
00000010: 8d23 1c3e 40f3 573e 72e6 b83e 0d50 643f
00000020: 4557 003f 985d a53e c365 cc3d 7870 d13d
00000030: 2e44 0d3e 805f 4bbe 0e27 043e dfc5 d53d
00000040: 4390 a1bd 283a 413d a7c0 5fbe 8bc8 593e
00000050: e5aa 623e 368a a53d fd61 ccbe f2a5 353e
00000060: bc2c e5bd 4ac7 bcbd 3254 3d3f 057a 34be
00000070: 8978 df3d b0cc 16bf 7c57 573e ac66 d53d
00000080: 109a a5be 6d0e 463e 9581 513d 1a4d 0b3e
00000090: c355 a23e a181 c43d a800 213e f8be 1cbf
000000a0: 0215 2a3d 04e4 343d

weight f4 [21, 42, 1, 1]
0.009889581 0.073908076 -0.11943268 0.03875883 -0.07519919 -0.040643934 -0.15107265 -0.21946391
0.11785364 -0.050279677 -0.06565186 -0.05457947 0.07315899 -0.110758506 -0.0065097725 -0.00655478
0.117310084 -0.2973995 -0.053019203 -0.09030691 -0.0022151242 -0.05817495 0.018194528 0.023064395
0.0781905 0.053349443 0.03598827 -0.026779056 -0.02302954 -0.018275073 0.0053451303 -0.0053977044
-0.022069203 -0.0923774 0.011517763 0.037984293 -0.016786212 0.025876006 0.042889483 0.043198816
-0.014850723 -0.05081555 -0.01828901 -0.08331726 0.051371057 0.0016377066 0.041670136 0.0053006276
0.01502644 0.2306895 -0.024649413 0.016962603 -0.0064511187 0.011500108 0.003984195 0.022418763
-0.046581596 0.026499335 -0.044690818 -0.03143353 -0.013543542 0.053948678 0.019254945 0.050033294
-0.16560009 0.019679297 0.0028027806 -0.004701323 -0.017032076 0.024128558 -0.022460673 -0.056789562
0.006779167 0.02248535 -0.029267242 -0.028849943 -0.049102757 -0.1795791 0.01002032 0.027366227
-0.04095215 0.11080141 -0.015499218 0.06768442 0.030173099 0.042247884 0.02334885 0.21483178
0.056148633 0.036504716 -0.06721307 0.045824144 0.027877731 -0.097182795 0.048308723 -0.031199886
0.018192269 -0.043107066 0.0030315926 -0.03667793 -0.033077627 -0.012892166 -0.026695158 -0.24132188
0.022467447 0.022335753 -0.00083045533 0.029668411 -0.02026341 0.000572414 -0.004070237 0.011585617
0.061285093 0.035421003 -0.0033737526 0.080266766 0.043195367 0.07179091 -0.0056076907 -0.01555907
0.050485216 0.026166454 0.02775831 -0.03478327 0.067327924 0.055735327 0.05017938 0.0126661
0.007753112 0.088557325 0.034207262 0.031203605 0.023599816 0.13020444 -0.044653542 0.010182539
-0.04122536 0.035916604 -0.0036312637 -0.100326695 0.0026707803 0.057370674 -0.080353 0.04890833
0.086398125 0.092364796 0.1668083 -0.08028951 0.052919716 0.007156602 -0.044050284 -0.024494348
0.043781705 -0.10628165 0.024419045 -0.01390039 -0.009090513 0.04659318 -0.10791926 0.04754409
-0.026245357 -0.101347156 0.010374972 -0.0031388088 0.020989517 0.039546814 -0.11247162 -0.054500453
0.005581943 -0.035545614 -0.022959573 0.16713007 0.01864014 0.14057426 0.038045228 0.06986209
0.065801255 -0.055843975 0.02510502 -0.062965296 -0.007869172 -0.045025673 0.0152193215 0.076312155
-0.014360198 -0.091333605 0.0034837783 0.03967022 -0.07009892 -0.03970458 -0.056183662 0.053416293
-0.040591292 0.01883512 -0.04188791 -0.021642804 -0.07749619 -0.048551105 0.01989445 0.0909385
-0.024153193 -0.06711568 -0.02400361 0.09490165 0.081188485 0.0039983075 -0.004160756 -0.11063464
-0.046996903 -0.02375834 -0.018537546 0.017719096 -0.13927543 0.06935418 0.05949282 -0.064256996
0.035781633 -0.07578629 0.10371524 0.100355156 -0.086889066 -0.02976557 -0.11626185 -0.030170321
-0.063210465 -0.011678498 0.05075882 0.07576838 0.040299553 0.020878555 0.124124005 0.04177636
0.10229794 0.033191063 -0.09039688 0.13908821 -0.050802987 0.086972706 0.04110384 -0.06881056
-0.0021495265 0.06288371 0.0077889008 0.10530301 0.05593541 0.081441954 -0.03462373 0.027224788
-0.0032377853 -0.022180084 -0.025952512 0.03749702 -0.039457608 -0.13037732 0.036304515 0.026279157
00000000: e907 223c 1e5d 973d 1f99 f4bd 94c1 1e3d
00000010: 0802 9abd 417a 26bd cab2 1abe 26bb 60be
00000020: 405d f13d 10f2 4dbd 7b74 86bd b98e 5fbd
00000030: 61d4 953d 5bd5 e2bd ee4f d5bb 7bc9 d6bb
00000040: 4540 f03d bf44 98be aa2a 59bd d4f2 b8bd
00000050: 9e2b 11bb db48 6ebd b10c 953c 8bf1 bc3c
00000060: 5722 a03d f284 5a3d 7068 133d c05f dbbc
00000070: 72a8 bcbc 9bb5 95bc 3426 af3b 3adf b0bb
00000080: 79ca b4bc 5d30 bdbd 00b5 3c3c 6b95 1b3d
00000090: 3d83 89bc ebf9 d33c e2ac 2f3d 3ef1 303d
000000a0: 7250 73bc f723 50bd d5d2 95bc 3da2 aabd
000000b0: 756a 523d 51a8 d63a 4eae 2a3d e3b0 ad3b
000000c0: 7531 763c de39 6c3e 91ed c9bc 28f5 8a3c
000000d0: e863 d3bb f36a 3c3c da8d 823b 8ea7 b73c
000000e0: 58cc 3ebd 2215 d93c b80d 37bd 72c0 00bd
000000f0: bbe5 5dbc 4af9 5c3d 8cbc 9d3c b6ef 4c3d
00000100: 1293 29be 7a36 a13c dbae 373b 8e0d 9abb
00000110: da86 8bbc 41a9 c53c 72ff b7bc 2c9c 68bd
00000120: c623 de3b 3233 b83c dbc1 efbc b756 ecbc
00000130: f91f 49bd 95e3 37be 452c 243c 232f e03c
00000140: 71bd 27bd daeb e23d 6ff0 7dbc 219e 8a3d
00000150: 932d f73c 1e0c 2d3d 1646 bf3c ddfc 5b3e
00000160: 1cfc 653d f885 153d 02a7 89bd 19b2 3b3d
00000170: d75f e43c c607 c7bd 5edf 453d e796 ffbc
00000180: f407 953c 0991 30bd afad 463b 993b 16bd
00000190: 687c 07bd aa39 53bc ceaf dabc 151d 77be
000001a0: a70d b83c 78f9 b63c eab2 59ba 2b0b f33c
000001b0: 73ff a5bc 0e0e 163a 9f5f 85bb 9ad1 3d3c
000001c0: 1406 7b3d 9d15 113d 2d1a 5dbb e762 a43d
000001d0: a0ed 303d 1d07 933d b8c0 b7bb 78eb 7ebc
000001e0: 96c9 4e3d 085b d63c 6565 e33c e778 0ebd
000001f0: 39e3 893d ba4a 643d e588 4d3d 7985 4f3c
00000200: d10d fe3b 8b5d b53d ea1c 0c3d b49e ff3c
00000210: 6754 c13c 5054 053e a2e6 36bd aad4 263c
00000220: ecdb 28bd 4a1d 133d 7ffa 6dbb 1578 cdbd
00000230: 4208 2f3b 83fd 6a3d 1d90 a4bd 1a54 483d
00000240: 80f1 b03d c129 bd3d cccf 2a3e d46e a4bd
00000250: 58c2 583d ee81 ea3b 126e 34bd 5fa8 c8bc
00000260: 7254 333d 32aa d9bd 730a c83c 76be 63bc
00000270: 60f0 14bc 7ed8 3e3d c604 ddbd 97bd 423d
00000280: 8100 d7bc 198f cfbd c9fb 293c 79b4 4dbb
00000290: 35f2 ab3c d7fb 213d 8557 e6bd de3b 5fbd
000002a0: bbe8 b63b 4798 11bd b715 bcbc 2524 2b3e
000002b0: 35b3 983c b3f2 0f3e 50d5 1b3d db13 8f3d
000002c0: cfc2 863d a7bc 64bd 0ba9 cd3c f3f3 80bd
000002d0: b3ed 00bc d76c 38bd 765a 793c 8c49 9c3d
000002e0: 0947 6bbc 1d0d bbbd 1a50 643b 3e7d 223d
000002f0: 0690 8fbd 45a1 22bd d720 66bd 0bcb 5a3d
00000300: 0e43 26bd 1c4c 9a3c a892 2bbd 404c b1bc
00000310: 53b6 9ebd 86dd 46bd b0f9 a23c f73d ba3d
00000320: ebdc c5bc f273 89bd 38a3 c4bc cc5b c23d
00000330: 2646 a63d 3c04 833b f356 88bb 6a94 e2bd
00000340: d37f 40bd daa0 c2bc 0ddc 97bc a327 913c
00000350: 389e 0ebe 9009 8e3d beae 733d 2c99 83bd
00000360: c38f 123d d835 9bbd a868 d43d 0187 cd3d
00000370: e5f2 b1bd edd6 f3bc b11a eebd c027 f7bc
00000380: 7d74 81bd 2c57 3fbc 7be8 4f3d 742c 9b3d
00000390: 2511 253d 8109 ab3c ba34 fe3d b01d 2b3d
000003a0: 9581 d13d 5af3 073d 0022 b9bd 246d 0e3e
000003b0: cb16 50bd bf1e b23d 805c 283d 8dec 8cbd
000003c0: 12df 0cbb 2dc9 803d 093a ff3b 1ba9 d73d
000003d0: 871c 653d 0acb a63d 9dd1 0dbd 8506 df3c
000003e0: 0631 54bb 02b3 b5bc 5d9a d4bc 7a96 193d
000003f0: 4d9e 21bd a281 05be 0bb4 143d 6347 d73c

bias f4 [21]
-0.40937164 -0.12696126 -0.39916077 1.6511852 0.119682014 -0.07979768 -0.07058914 0.10531567
-0.2667317 -0.25467095 0.00024656413 -1.088466 -0.44545534 -0.46671712 -0.35497487 0.0070916414
-0.33832338 0.032790363 -0.7795324 -0.47247767 0.89322835
00000000: 2999 d1be 2202 02be cd5e ccbe 095a d33f
00000010: d81b f53d f76c a3bd 0a91 90bd beaf d73d
00000020: 0f91 88be 3b64 82be 4745 8139 db52 8bbf
00000030: b912 e4be 8cf5 eebe 44bf b5be 0061 e83b
00000040: b938 adbe 304f 063d 6f8f 47bf 98e8 f1be
00000050: 9daa 643f
