model_zoo/X4_-12_0.19M_28.666.pth (torch, 823115 bytes, 128 tensors)

weight f4 [33, 3, 3, 3]
0.02929319 -0.06703886 -0.048205454 0.10455936 -0.376635 0.103048585 -0.032619063 0.09037017
-0.015210566 -0.06702209 0.077033095 0.027146729 0.07138479 -0.13484828 0.0015197878 -0.032583933
0.031967588 -0.03857838 0.08019034 0.08062952 -0.00016390452 -0.1514627 -0.1646502 -0.14100598
0.004467545 0.043720722 0.09393075 -0.10482711 -0.02032409 0.006339921 0.054957923 -0.1307975
-0.10567661 0.091828145 -0.10869424 0.084358126 0.14596383 -0.14797762 0.04519025 0.07871458
-0.1751135 0.039223056 0.07140665 0.013844926 -0.10042588 -0.09336605 0.085269146 -0.05626791
0.055797037 0.17087989 -0.015426873 -0.1942042 0.1522532 0.008689518 0.00104243 -0.06419488
0.06057728 0.014187405 0.21185093 -0.23883678 0.003352679 -0.06556795 0.08704373 0.14279804
-0.06802925 -0.10455042 -0.12987131 0.10606211 0.15160173 -0.11833432 0.015152759 -0.12922513
-0.18299857 0.10065464 0.039955016 0.10964133 -0.41530216 -0.005258749 0.083880484 0.017100057
-0.0031849034 0.0615364 0.08678026 0.03235019 -0.16553825 -0.2935197 -0.124477014 -0.0013857202
-0.14648168 0.03972772 0.010697221 -0.029042117 0.0566944 0.070973285 0.17192882 0.11226342
-0.0073279333 0.25551975 -0.05095613 -0.028787315 -0.1864148 -0.06859927 -0.107959 -0.15400217
0.14448455 0.0138382595 -0.10295001 0.080441736 0.021381715 0.16328077 -0.07369003 0.052658454
-0.03187377 -0.09384723 -0.101919256 -0.051255308 -0.061239243 0.020998977 0.07785751 0.021961965
0.17428125 0.29056808 0.049765985 -0.0047098747 -0.1116472 0.06447913 -0.029297955 0.029347206
-0.11261502 -0.0143760145 -0.11875772 0.16877477 -0.09050098 -0.08475566 0.015183696 -0.13807023
0.11986346 -0.12416669 0.021987705 -0.083873615 0.20940128 -0.1459251 0.055260923 0.009998662
0.20428525 -0.13900495 0.03249543 -0.051504638 0.25055787 -0.063275546 0.12249661 -0.13096635
-0.09849169 -0.0586422 -0.028862802 0.09208719 0.048021987 -0.042937946 -0.20456596 0.03831221
0.07656625 0.068812355 0.012686904 -0.067586415 0.0028288148 -0.022749115 -0.14285079 -0.075616695
0.14644831 0.115034044 -0.040638976 -0.068735585 0.1163085 -0.124687344 -0.06986706 0.3048779
0.08394775 0.008993134 -0.15953115 0.10534348 0.07522401 -0.116533585 0.12644018 0.17556651
-0.1180069 0.07839343 -0.120021224 0.18491563 -0.13753122 -0.0042093913 0.036405157 0.009244004
0.105973944 -0.17362839 -0.1408229 -0.065815106 0.08252312 -0.013401835 -0.0016690134 -0.10242991
0.012980792 0.106896184 0.043001033 -0.06201432 0.007877406 -0.09219881 0.13966553 -0.010730512
0.04247697 0.017430723 -0.19492641 0.24314703 0.15859082 0.04936044 -0.060766455 -0.06053141
0.09883573 -0.05910457 -0.08479505 -0.14780506 -0.045213867 0.09718777 0.012850064 0.027756374
-0.05102874 -0.11277618 0.15120617 -0.028723182 0.09560969 -0.1376573 -0.045491077 -0.086861506
-0.07374499 0.10474703 -0.043322448 -0.07235281 0.11999442 0.06949452 0.11879086 -0.049174026
-0.0033632647 0.00028303065 -0.062170003 0.12763357 -0.108510315 -0.07853786 0.05431856 -0.13734178
-0.016786044 0.039691254 0.0218004 0.07359888 -0.059172396 0.05780247 -0.012719228 -0.040845077
00000000: 46f8 ef3c ab4b 89bd 1573 45bd 3823 d63d
00000010: 4dd6 c0be 230b d33d 919b 05bd ff13 b93d
00000020: bd35 79bc e142 89bd 87c3 9d3d d162 de3c
00000030: 3032 923d ab15 0abe 9e33 c73a bb76 05bd
00000040: 72f0 023d 5d04 1ebd d53a a43d 1721 a53d
00000050: c9dd 2bb9 0a19 1bbe 109a 28be df63 10be
00000060: 7c64 923b 8014 333d c45e c03d 99af d6bd
00000070: b57e a6bc 1dbf cf3b 8f1b 613d c8ef 05be
00000080: fa6c d8bd 6510 bc3d 169b debd f4c3 ac3d
00000090: 8b77 153e 7287 17be 6919 393d 1c35 a13d
000000a0: f450 33be 5ba8 203d a63d 923d d4d5 623c
000000b0: 15ac cdbd b336 bfbd 97a1 ae3d 2e79 66bd
000000c0: 6f8b 643d 23fb 2e3e ffc0 7cbc 77dd 46be
000000d0: 43e8 1b3e 7b5e 0e3c 26a2 883a 9b78 83bd
000000e0: e21f 783d 4a72 683c 73ef 583e a191 74be
000000f0: 9fb8 5b3b 7d48 86bd fc43 b23d a639 123e
00000100: eb52 8bbd 881e d6bd fcfc 04be 1737 d93d
00000110: 7c3d 1b3e 4459 f2bd 4743 783c 9853 04be
00000120: fa63 3bbe 0524 ce3d dfa7 233d a28b e03d
00000130: 7ca2 d4be 9551 acbb 88c9 ab3d 6b15 8c3c
00000140: d0b9 50bb 980d 7c3d d9b9 b13d a281 043d
00000150: dc82 29be 3748 96be ceed febd 0ea1 b5ba
00000160: 4bff 15be 89b9 223d 6643 2f3c bce9 edbc
00000170: 6338 683d 715a 913d 1c0e 303e 5dea e53d
00000180: 291f f0bb 7cd3 823e 60b7 50bd 60d3 ebbc
00000190: 85e3 3ebe c67d 8cbd 9c19 ddbd bfb2 1dbe
000001a0: c2f3 133e deb9 623c 74d7 d2bd a3be a43d
000001b0: b528 af3c 1333 273e ccea 96bd 64b0 573d
000001c0: 128e 02bd fa32 c0bd 0bbb d0bd 16f1 51bd
000001d0: 00d6 7abd 0c06 ac3c c273 9f3d 94e9 b33c
000001e0: c976 323e 57c5 943e 6bd7 4b3d 4b55 9abb
000001f0: 4aa7 e4bd a20d 843d 4402 f0bc 8d69 f03c
00000200: b4a2 e6bd 6089 6bbc 3f37 f3bd 4bd3 2c3e
00000210: 9458 b9bd 6094 adbd 09c5 783c 4862 0dbe
00000220: f97a f53d 1b4b febd 8f1f b43c eec5 abbd
00000230: 4a6d 563e 646d 15be 4759 623d 6ed1 233c
00000240: 2730 513e 5057 0ebe ee19 053d 87f6 52bd
00000250: 1f49 803e 9c96 81bd 81df fa3d 0b1c 06be
00000260: 03b6 c9bd ce32 70bd af71 ecbc 3598 bc3d
00000270: b4b2 443d b3df 2fbd bd79 51be 44ed 1c3d
00000280: c4ce 9c3d 7eed 8c3d bbdc 4f3c bf6a 8abd
00000290: a363 393b 5a5c babc 7a47 12be eddc 9abd
000002a0: 8cf6 153e f896 eb3d 0e75 26bd 3ec5 8cbd
000002b0: 2733 ee3d 145c ffbd 7616 8fbd f518 9c3e
000002c0: ccec ab3d f057 133c 225c 23be 53be d73d
000002d0: 0c0f 9a3d 29a9 eebd 8979 013e b5c7 333e
000002e0: 9aad f1bd bc8c a03d b0cd f5bd 865a 3d3e
000002f0: fcd4 0cbe efee 89bb 931d 153d 2a74 173c
00000300: de08 d93d a4cb 31be e133 10be 12ca 86bd
00000310: e201 a93d 5f93 5bbc ccc2 daba c6c6 d1bd
00000320: 63ad 543c 63ec da3d da21 303d ba02 7ebd
00000330: 3c10 013c bbd2 bcbd 7b04 0f3e 08cf 2fbc
00000340: 55fc 2d3d e0ca 8e3c ca9a 47be 89fb 783e
00000350: a265 223e 2c2e 4a3d 3fe6 78bd c9ef 77bd
00000360: 636a ca3d a217 72bd 07a9 adbd 365a 17be
00000370: 2d32 39bd 620a c73d 1389 523c 5661 e33c
00000380: 8303 51bd 33f7 e6bd cad5 1a3e e14c ebbc
00000390: 03cf c33d 09f6 0cbe da54 3abd 72e4 b1bd
000003a0: 9d07 97bd 9c85 d63d e172 31bd b62d 94bd
000003b0: a2bf f53d 2553 8e3d 9f48 f33d b46a 49bd
000003c0: 386a 5cbb bb63 9439 f9a5 7ebd 60b2 023e
000003d0: a83a debd 75d8 a0bd 237d 5e3d 53a3 0cbe
000003e0: e382 89bc 4c93 223d c196 b23c 02bb 963d
000003f0: c15e 72bd 48c2 6c3d 4f64 50bc 2b4d 27bd

bias f4 [33]
0.13079745 0.2524576 -0.3150292 -0.2293626 -0.3334734 2.186458 -0.096105166 2.1417809
4.83903 -2.4037833 0.17791826 2.1502547 -0.018428547 1.7101799 -0.38913074 -0.1835413
0.1600529 2.3008597 3.0453157 -1.0082172 -0.8701203 4.5188813 0.019201968 -1.0397725
-0.3384764 2.9481344 0.573515 0.59110683 2.3861299 2.1383433 0.30671734 0.87833756
1.083259
00000000: c4ef 053e 1f42 813e 824b a1be 08de 6abe
00000010: 07bd aabe eeee 0b40 c9d2 c4bd f012 0940
00000020: 55d9 9a40 96d7 19c0 3430 363e c69d 0940
00000030: 77f7 96bc 2de7 da3f 253c c7be 40f2 3bbe
00000040: e8e4 233e 4941 1340 74e6 4240 430d 81bf
00000050: 34c0 5ebf ad9a 9040 724d 9d3c 4417 85bf
00000060: c74c adbe 3cae 3c40 e1d1 123f c752 173f
00000070: 5ab6 1840 9eda 0840 0e0a 9d3e bbda 603f
00000080: 3ba8 8a3f

weight f4 [16, 33, 1, 1]
0.33940816 -0.21610306 -0.06538208 0.025759973 0.14790817 -0.115591474 -0.0425793 0.001975098
0.19238725 -0.021881754 -0.5137731 0.029499957 -0.045796756 -0.012083712 0.03497324 -0.12759262
0.0027837465 0.024063151 0.14137392 -0.070686296 -0.2422751 0.20727645 0.0615861 0.06914271
-0.0039687804 -0.043926246 -0.13175151 -0.07906383 0.059745472 0.19398056 -0.32918793 0.028620128
0.037048437 0.0934908 -0.16468501 0.23089527 -0.055548783 0.017863056 -0.13124412 -0.04502065
-0.2868045 -0.12093787 -0.20861019 0.16250014 0.35735407 0.31221658 0.28139943 -0.025616271
-0.097278595 -0.0013810517 -0.27591416 0.009899007 -0.32473722 0.22215334 -0.12544906 -0.17333491
0.15107056 0.37865564 -0.09980106 -0.0512432 -0.14211658 0.111746 -0.040056173 -0.17757156
0.45060694 0.13810723 0.034115907 0.12200198 0.019231742 0.01664347 -0.111521594 0.022868486
0.03562218 0.13749646 0.42618632 -0.27788347 -0.060865387 0.15967166 0.040985852 0.066161126
-0.20998678 -0.091938734 -0.091223046 0.15849517 0.26974103 -0.2539201 -0.2774655 0.34348384
-0.034885816 0.18179452 0.0016178696 0.16486931 0.047278382 0.14799275 0.057857815 0.25223932
-0.10790465 0.25946546 0.07710583 0.16626057 0.092380345 0.03867279 0.32787296 -0.0036991655
0.11725256 0.12449332 0.18704924 0.17449154 -0.11972452 -0.16013893 -0.04716109 -0.078088745
0.026591783 -0.23044817 0.18322073 -0.29118896 0.12555099 0.020180354 0.03624619 -0.043548044
0.24297523 0.08825458 0.2393923 -0.14087765 -0.037329245 0.12303395 0.028203228 -0.2658508
0.2710176 -0.17234342 -0.05507315 0.08351749 0.30763042 0.019278482 -0.09782581 0.08553431
-0.31539336 -0.011005543 0.17569819 0.14673977 0.09673051 -0.11012098 -0.10910812 0.16889083
0.15879951 0.15880787 -0.034580365 0.022599235 0.017192768 0.15167665 0.065884195 -0.06734595
-0.045731183 0.35100788 -0.0070894375 0.13559353 0.002590122 0.2390045 -0.07023961 -0.025059527
0.21779513 0.27265206 0.021182736 0.3270874 0.15878102 0.24410962 -0.12281031 -0.047550887
0.16109325 0.08645517 -0.22451821 -0.14873928 -0.21306017 0.01567497 0.030171005 -0.34605438
0.020065596 0.20326266 -0.023163864 0.06273165 -0.000843653 -0.0020477697 -0.0662225 -0.121080846
-0.022331115 -0.02635998 -0.037641056 0.13742894 0.24919803 -0.020599062 -0.048680022 -0.13081588
-0.18889008 -0.2706448 0.26116163 -0.3619146 -0.046903856 -0.24546537 -0.22828843 -0.0933344
-0.09703186 -0.15866485 0.16680671 -0.0670902 0.08080556 -0.09690577 -0.42444888 -0.024354909
-0.11674718 0.074742354 0.019202175 0.120485924 0.063108236 0.39260283 -0.3721033 -0.012169994
-0.08462681 0.2492628 -0.04675452 -0.095205024 -0.05197367 -0.24355893 -0.027697284 0.2548762
-0.2922464 -0.28900954 0.13898544 -0.23408055 -0.01274157 -0.011719559 -0.21030246 -0.13194248
0.13926855 -0.27394557 0.051225107 -0.03788856 0.058301866 0.085437275 0.1986622 0.069180064
0.22106038 -0.19632316 -0.36581352 -0.2810135 -0.32031167 0.021787263 0.08862973 -0.012400075
0.23308463 -0.029275838 0.16766453 -0.22650687 0.08751057 0.11196386 -0.15183473 -0.38506293
00000000: e8c6 ad3e 1f4a 5dbe 0ae7 85bd 9406 d33c
00000010: 3d75 173e 39bb ecbd a267 2ebd a570 013b
00000020: 2a01 453e 5d41 b3bc a286 03bf e5a9 f13c
00000030: 6195 3bbd c3fa 45bc 1a40 0f3d a4a7 02be
00000040: 846f 363b 1620 c53c 53c4 103e fac3 90bd
00000050: f716 78be 4740 543e b541 7c3d b19a 8d3d
00000060: 8b0c 82bb 02ec 33bd dee9 06be 38ec a1bd
00000070: abb7 743d d7a2 463e 528b a8be c274 ea3c
00000080: 1ac0 173d 1b78 bf3d 30a3 28be cf6f 6c3e
00000090: 1f87 63bd 8b55 923c dc64 06be 9367 38bd
000000a0: 0ad8 92be 46ae f7bd e99d 55be 7066 263e
000000b0: 1df7 b63e dada 9f3e 9613 903e 37d9 d1bc
000000c0: 003a c7bd 6804 b5ba 9f44 8dbe 722f 223c
000000d0: f543 a6be 2a7c 633e b875 00be b57e 31be
000000e0: 3eb2 1a3e 27df c13e 8064 ccbd 64e4 51bd
000000f0: 0287 11be 16db e43d f111 24bd 52d5 35be
00000100: f4b5 e63e fb6b 0d3e 1fbd 0b3d 2ddc f93d
00000110: e38b 9d3c e357 883c 6f65 e4bd b156 bb3c
00000120: 90e8 113d dfcb 0c3e 1835 da3e be46 8ebe
00000130: fc4d 79bd f880 233e c8e0 273d 7c7f 873d
00000140: c606 57be 604a bcbd 26d3 babd 8f4c 223e
00000150: 7f1b 8a3e d101 82be f50f 8ebe 1ddd af3e
00000160: 6ee4 0ebd 5828 3a3e b20e d43a 80d3 283e
00000170: faa6 413d 698b 173e 51fc 6c3d 8325 813e
00000180: 1dfd dcbd a8d8 843e a9e9 9d3d 3640 2a3e
00000190: e831 bd3d 5c67 1e3d f7de a73e b36d 72bb
000001a0: 1c22 f03d 5bf6 fe3d d689 3f3e e9ad 323e
000001b0: 2132 f5bd 76fb 23be fd2b 41bd feec 9fbd
000001c0: 03d7 d93c 9bfa 6bbe 379e 3b3e b816 95be
000001d0: 7090 003e 4551 a53c e376 143d 6f5f 32bd
000001e0: 80ce 783e d1be b43d 4123 753e 3b42 10be
000001f0: 8de6 18bd 39f9 fb3d 750a e73c 991d 88be
00000200: d2c2 8a3e cb7a 30be 6294 61bd 380b ab3d
00000210: bc81 9d3e e8ed 9d3c e658 c8bd 9d2c af3d
00000220: 3d7b a1be 9850 34bc 3aea 333e f342 163e
00000230: a51a c63d 1c87 e1bd 1474 dfbd b8f1 2c3e
00000240: 579c 223e 889e 223e 24a4 0dbd 0822 b93c
00000250: d9d7 8c3c 2051 1b3e 4bee 863d acec 89bd
00000260: 9f50 3bbd 4eb7 b33e 834e e8bb 08d9 0a3e
00000270: 09bf 293b 98bd 743e c9d9 8fbd a349 cdbc
00000280: b005 5f3e 0d99 8b3e 6b87 ad3c 0078 a73e
00000290: 7e97 223e dff7 793e f983 fbbd b8c4 42bd
000002a0: a1f5 243e 680f b13d 1ae8 65be 1c4f 18be
000002b0: 722c 5abe cb68 803c 2f29 f73c 0a2e b1be
000002c0: 9b60 a43c 1624 503e 25c2 bdbc 7479 803d
000002d0: 9828 5dba e033 06bb a99f 87bd 3cf9 f7bd
000002e0: beef b6bc e3f0 d7bc 822d 1abd 2cba 0c3e
000002f0: c52d 7f3e 5dbf a8bc b464 47bd 99f4 05be
00000300: 676c 41be f591 8abe fab6 853e df4c b9be
00000310: 421e 40bd 465b 7bbe 71c4 69be 1b26 bfbd
00000320: a4b8 c6bd 0a79 22be 61cf 2a3e 9666 89bd
00000330: 637d a53d 8876 c6bd 5d51 d9be f283 c7bc
00000340: 2519 efbd 8512 993d e14d 9d3c 53c1 f63d
00000350: e43e 813d 3d03 c93e 5384 bebe a864 47bc
00000360: d250 adbd bf3e 7f3e ab81 3fbd dafa c2bd
00000370: 58e2 54bd 8367 79be 6ae5 e2bc 227f 823e
00000380: 52a1 95be 0ff9 93be 3352 0e3e d0b2 6fbe
00000390: 05c2 50bc 6503 40bc 8759 57be ee1b 07be
000003a0: 6a9c 0e3e 9842 8cbe 6bd1 513d 0931 1bbd
000003b0: f0cd 6e3d bdf9 ae3d 1b6e 4b3e 47ae 8d3d
000003c0: a75d 623e f008 49be e94b bbbe 00e1 8fbe
000003d0: e4ff a3be 347b b23c 8183 b53d af29 4bbc
000003e0: bdad 6e3e e2d3 efbc 40b0 2b3e 6bf1 67be
000003f0: be38 b33d 4f4d e53d 907a 1bbe f826 c5be

bias f4 [16]
1.1788064 0.7221434 3.2620635 1.7426424 2.002566 0.86515194 0.3040377 -0.04908515
3.7968714 1.5526654 1.3278115 0.69601834 1.4334848 -0.18016014 -0.15455839 0.25650522
00000000: 21e3 963f 64de 383f a6c5 5040 e80e df3f
00000010: 0b2a 0040 997a 5d3f d4aa 9b3e 830d 49bd
00000020: f1ff 7240 bdbd c63f baf5 a93f 422e 323f
00000030: 6e7c b73f e67b 38be 8e44 1ebe a754 833e

weight f4 [33, 33, 3, 3]
-0.07141996 -0.12247127 -0.049597565 -0.005816827 0.01562703 -0.0071694315 0.04179313 0.16775818
0.006698051 0.033302266 -0.06285738 -0.073232666 0.08477733 -0.039842054 -0.09933227 0.014180321
0.045511533 0.06764762 -0.011679788 0.046458628 -0.0015479531 -0.041385364 0.083399676 -0.07255075
-0.03075426 0.00092567684 0.02195602 -0.014045152 -0.044546936 0.07147478 -0.020954585 -0.12783037
0.1405935 0.050506465 -0.0207035 0.10616608 0.026484476 -0.023487922 0.06890382 -0.08696484
-0.098490775 -0.17432275 -0.026972225 -0.081364796 -0.0033494956 0.05623138 -0.010523226 0.044569865
0.22881319 0.26544085 0.031545375 0.22441688 0.5188191 0.29761127 -0.058485664 -0.08862794
-0.08935579 0.040895887 0.079954 0.09259619 0.07762411 -0.08725319 0.08936924 -0.01700501
0.056817684 0.095767245 -0.0852672 0.108755894 -0.0038525548 0.13940285 0.24872477 0.31389433
-0.013675457 0.37242135 0.052563217 -0.02708452 0.29417658 0.085565776 0.64781725 0.9625619
0.7162501 0.095877066 -0.12849417 -0.123020105 -0.026013415 -0.27375656 -0.058146406 -0.2110185
-0.33269748 -0.29013333 -0.025597781 0.00026542335 0.03012578 -0.04937903 0.07520224 0.20180337
-0.19552253 -0.11666867 -0.040836465 -0.026483243 0.10012821 -0.016231306 -0.13779652 -0.018250316
-0.19648735 0.38379925 0.44605318 0.3101904 0.01091389 0.007488783 -0.014572986 0.019151613
-0.0877926 -0.16904743 0.13114175 0.089720905 -0.1549145 -0.007910429 0.057564404 0.106739774
-0.14490478 -0.020633342 -0.03273965 0.2515451 0.28734672 0.3996268 0.020993456 0.018742768
-0.08682912 0.072374664 -0.040837783 0.09589627 -0.020051071 -0.004773582 -0.04509206 -0.05582329
0.0380771 0.09970323 0.043398175 -0.03923737 -0.09900529 -0.046920627 -0.11377479 -0.12098295
0.10623006 0.084224075 -0.04397113 -0.07845354 0.11795689 -0.053950712 -0.08002335 -0.08783588
-0.10728474 -0.10841805 -0.023463357 0.001503242 -0.054278295 0.026551725 0.07706886 0.19346058
0.34470937 0.21619534 0.0035472473 0.32409307 0.15338556 -0.0077670007 0.17350623 0.21293718
0.44170162 0.6015905 0.39091262 -0.027743617 -0.10471594 -0.009661708 -0.005499321 -0.1474808
-0.02746721 -0.06017838 -0.13399434 -0.027479406 0.07720374 -0.096635394 -0.055312436 0.09168423
0.0068370546 0.13648708 -0.26280305 -0.1656409 -0.23877281 -0.04094538 0.12922229 0.065933734
0.14834522 0.37624004 0.18360434 0.50859267 0.8003337 0.6485803 -0.017342959 0.0091188
-0.0356299 0.0867624 0.1337183 -0.016898442 -0.08605336 0.037372492 -0.043040846 -0.10462864
-0.044647854 -0.1212678 -0.049503908 0.022127224 0.045194257 -0.061377954 0.004683267 -0.10258846
0.002279995 -0.0029550742 0.06745576 0.0038571358 -0.05274804 -0.18695532 0.053135272 0.04867887
0.1252003 -0.11339413 0.036098517 0.044567753 -0.031062644 0.19449617 0.12426017 0.30645183
0.38001236 0.5003349 0.02821167 -0.0073407535 -0.25892693 0.05865765 0.06765017 0.14099741
0.035933197 0.08389182 -0.061582174 -0.008452056 0.010153814 -0.09719078 -0.060844358 0.09154516
0.05552206 0.016894856 0.04497619 0.12911876 -0.09830185 0.024453647 -0.011335695 0.073551
00000000: a144 92bd 38d2 fabd d126 4bbd 159b bebb
00000010: 4204 803c 8ded eabb 462f 2b3d cdc8 2b3e
00000020: 537b db3b f567 083d 5fbb 80bd 02fb 95bd
00000030: bd9f ad3d 6c31 23bd b86e cbbd 9454 683c
00000040: 4d6a 3a3d d68a 8a3d 955c 3fbc 674b 3e3d
00000050: b0e4 caba b383 29bd 73cd aa3d 7d95 94bd
00000060: 5cf0 fbbc 1fa9 723a 1cdd b33c a31d 66bc
00000070: d976 36bd 5f61 923d f3a8 abbc f7e5 02be
00000080: bef7 0f3e dedf 4e3d 639a a9bc 9a6d d93d
00000090: f9f5 d83c be69 c0bc 721d 8d3d 9f1a b2bd
000000a0: 88b5 c9bd aa81 32be dbf4 dcbc 96a2 a6bd
000000b0: 3683 5bbb e052 663d 9c69 2cbc e48e 363d
000000c0: 014e 6a3e dde7 873e b935 013d 8acd 653e
000000d0: 54d1 043f 8160 983e aa8e 6fbd 9182 b5bd
000000e0: 2b00 b7bd 7282 273d ecbe a33d 12a3 bd3d
000000f0: 64f9 9e3d cdb1 b2bd 3807 b73d 174e 8bbc
00000100: a9b9 683d 9e21 c43d 92a0 aebd 69bb de3d
00000110: 257b 7cbb 9fbf 0e3e b5b1 7e3e c2b6 a03e
00000120: 060f 60bc 03ae be3e 874c 573d 5be0 ddbc
00000130: 509e 963e 1c3d af3d 5ad7 253f 756a 763f
00000140: 2b5c 373f 325b c43d fa93 03be f7f1 fbbd
00000150: 161a d5bc d229 8cbe ed2a 6ebd 3c15 58be
00000160: 5357 aabe 5b8c 94be 70b2 d1bc 8528 8b39
00000170: 57ca f63c aa41 4abd a203 9a3d 8ba5 4e3e
00000180: 0f37 48be fcef eebd 2344 27bd 63f3 d8bc
00000190: 0510 cd3d 84f7 84bc 881a 0dbe b081 95bc
000001a0: fb33 49be 5681 c43e 1561 e43e 47d1 9e3e
000001b0: 2cd0 323c 7764 f53b 89c3 6ebc d8e3 9c3c
000001c0: 9bcc b3bd c51a 2dbe 064a 063e 98bf b73d
000001d0: e8a1 1ebe be9a 01bc a7c8 6b3d 629a da3d
000001e0: eb61 14be 4107 a9bc 031a 06bd 85ca 803e
000001f0: 1c1f 933e e29b cc3e 78fa ab3c 6f8a 993c
00000200: 77d3 b1bd 2b39 943d 8545 27bd 4365 c43d
00000210: 2542 a4bc b56b 9cbb 74b2 38bd f6a6 64bd
00000220: bcf6 1b3d 3531 cc3d 49c2 313d 5db7 20bd
00000230: 49c3 cabd d82f 40bd c202 e9bd e9c5 f7bd
00000240: 258f d93d ac7d ac3d 121b 34bd 40ac a0bd
00000250: 6293 f13d 6cfb 5cbd 48e3 a3bd 4ce3 b3bd
00000260: 1ab8 dbbd 480a debd 3a36 c0bc 6e08 c53a
00000270: eb52 5ebd 0183 d93c 47d6 9d3d 881a 463e
00000280: bf7d b03e 5062 5d3e ef78 683b 87ef a53e
00000290: 1b11 1d3e 5382 febb 9eab 313e 340c 5a3e
000002a0: b726 e23e d601 1a3f b325 c83e 9546 e3bc
000002b0: 5075 d6bd 244c 1ebc a633 b4bb 3505 17be
000002c0: ea02 e1bc 9b7d 76bd d035 09be 7e1c e1bc
000002d0: ff1c 9e3d c7e8 c5bd 4b8f 62bd f1c4 bb3d
000002e0: 5f09 e03b 45c3 0b3e 1f8e 86be c59d 29be
000002f0: dc80 74be 58b6 27bd d952 043e 4408 873d
00000300: cfe7 173e 89a2 c03e c702 3c3e 2133 023f
00000310: abe2 4c3f 5c09 263f d212 8ebc 0567 153c
00000320: a8f0 11bd 7cb0 b13d 73ed 083e 9a6e 8abc
00000330: be3c b0bd e613 193d 994b 30bd 8a47 d6bd
00000340: abe0 36bd 415b f8bd 9cc4 4abd 2744 b53c
00000350: 9d1d 393d 7367 7bbd 1776 993b e619 d2bd
00000360: f86b 153b eba9 41bb 3f26 8a3d 00c8 7c3b
00000370: 540e 58bd 3771 3fbe 5fa4 593d 7f63 473d
00000380: 8234 003e 2e3b e8bd 0adc 133d ad8c 363d
00000390: 1677 febc 012a 473e 1e7c fe3d 41e7 9c3e
000003a0: fb90 c23e f315 003f 291c e73c b48a f0bb
000003b0: 1292 84be 0143 703d 2c8c 8a3d a061 103e
000003c0: b02e 133d 79cf ab3d 973d 7cbd 7e7a 0abc
000003d0: 2f5c 263c f60b c7bd ef37 79bd 077c bb3d
000003e0: 196b 633d 1567 8a3c f438 383d b537 043e
000003f0: 7b52 c9bd 0453 c83c 5ab9 39bc e8a1 963d

bias f4 [33]
5.1141033 -3.8776052 1.618645 1.4726263 1.3880374 3.3680696 -2.63451 3.5018377
5.2187095 4.0236654 -1.974871 4.0366955 1.63691 1.831536 2.4629326 0.5965891
0.14274773 5.255299 4.29667 -3.700042 4.288923 4.9453487 0.46983835 -1.1478928
-2.4127932 5.246937 -1.2275683 0.5738629 -0.77254975 3.53325 1.1557894 4.8066144
1.7652467
00000000: bca6 a340 af2a 78c0 c22f cf3f 057f bc3f
00000010: 36ab b13f 748e 5740 d09b 28c0 1c1e 6040
00000020: abff a640 dec1 8040 93c8 fcbf 9c2c 8140
00000030: 4486 d13f c66f ea3f b0a0 1d40 10ba 183f
00000040: 762c 123e 692b a840 527e 8940 7dcd 6cc0
00000050: db3e 8940 4c40 9e40 a78e f03e 27ee 92bf
00000060: 346b 1ac0 e8e6 a740 f520 9dbf aee8 123f
00000070: d2c5 45bf c520 6240 e8f0 933f c9cf 9940
00000080: 9bf3 e13f

weight f4 [16, 33, 1, 1]
-0.023614831 0.03582763 0.108123355 0.022822497 0.0029588672 0.010392554 -0.013806355 0.15842514
0.00661516 0.13508788 -0.049351122 -0.06591152 0.008443218 0.039388526 -0.1724359 0.028841313
0.017479394 0.034607857 -0.030139506 0.062133394 0.026573816 -0.046322946 -0.023366861 -0.020888101
-0.12920506 -0.025377274 0.02892119 0.039302222 0.049446717 -0.061642244 0.24759859 -0.039827615
0.29088593 -0.011797388 0.05765803 0.060862835 -0.024876522 0.008147402 0.0005170113 0.014789468
0.10672492 -0.0063810404 -0.08704131 -0.034162153 0.008404365 0.029377395 0.016356122 0.5402965
0.010150314 -0.075536124 0.047243405 0.015715487 0.061350208 -0.009263943 -0.03896036 0.07723916
0.020086773 -0.0059567164 -0.0010833339 -0.0020241404 -0.0064423913 0.029903509 -0.002566004 0.19118172
-0.010886004 -0.030598165 0.021127068 -0.046163052 -0.033683714 0.011403971 0.014109654 -0.06809571
0.0070262034 -0.39253142 0.033508 -0.0233786 -0.002861125 -0.013189603 -0.007991651 0.01961659
0.11970435 -0.071458705 -0.020543348 -0.023665057 -0.021321937 0.057473842 -0.012877453 -0.001145711
-0.030602477 -0.035841074 0.015795214 -0.008133035 -0.038986545 -0.05109944 0.08147854 0.013636457
0.33787698 -0.0051232483 0.04462132 0.1317774 0.061984226 0.033875283 -0.115372196 -0.054118257
0.0093601085 -0.3158517 0.14290442 -0.15255834 0.06729337 -0.006051893 0.06315498 0.036478948
0.043847688 -0.16921373 0.048139334 0.020997059 0.10481281 0.018718708 -0.09506865 0.03588276
0.065859154 -0.11090173 -0.15823103 0.028984394 0.017546212 -0.020439973 0.014413824 0.05190434
-0.013625567 0.027372312 0.05839107 0.03527135 0.045792084 -0.017492209 0.0037701358 -0.029288262
-0.0028135646 -0.103403024 0.026238712 0.004932173 0.015227489 0.023272943 -0.003033324 0.020042248
0.034120645 0.019656722 0.04930619 0.05044433 0.07976124 -0.014357839 0.02074727 0.058546536
-0.015402992 -0.05968726 0.01940346 -0.006224951 -0.010387896 -0.0012699746 -0.008308677 0.0044956505
0.00040609014 -0.012009993 -0.0038852184 0.04806857 0.08568905 0.04866669 -0.027553825 0.015580443
-0.012699613 0.010188407 -0.0025389607 0.07171959 0.097688965 -0.002592805 -0.09643404 -0.0057913745
0.010898067 0.006773676 0.023416106 -0.2328819 -0.008127683 -0.0035653554 -0.015831213 0.004261344
0.013450777 0.020654881 0.0031726067 0.058353364 0.046459973 0.04890514 0.0066774925 0.013612298
0.023969699 -0.045021392 0.020524666 0.20852327 0.023584584 0.44640994 -0.017848449 0.07675119
0.016299793 -0.02805958 -0.0023672124 -0.058862757 -0.012765145 -0.03355403 0.04039246 0.07876095
0.04737998 0.009628013 -0.007345757 -0.008502823 0.01788648 0.013872846 0.026469963 -0.031030277
0.03367583 -0.013646937 0.041552596 -0.03179735 0.031679284 0.01601404 0.011178326 -0.046864953
0.007984519 -0.00012365094 0.019851563 -0.0067935837 0.016670648 0.0066073546 0.03939718 0.06855643
-0.04470778 -0.00996104 -0.4623132 0.015543105 0.046669383 -0.21438342 0.061129835 -0.15441175
0.07163291 -0.015745917 -0.016434388 -0.16873983 0.0065742233 -0.17406555 0.009218476 -0.017560134
-0.0025368265 0.024779925 -0.06394154 0.013811138 -0.022197274 0.044305786 -0.30169132 0.0057090498
00000000: e473 c1bc febf 123d c76f dd3d 3ff6 ba3c
00000010: 8ee9 413b 8845 2a3c 0d34 62bc 333a 223e
00000020: fcc3 d83b 7a54 0a3e 6724 4abd 9efc 86bd
00000030: 6c55 0a3c dd55 213d 0993 30be 9e44 ec3c
00000040: f230 8f3c f8c0 0d3d 20e7 f6bc 967f 7e3d
00000050: 55b1 d93c 21bd 3dbd dc6b bfbc 861d abbc
00000060: 554e 04be 00e4 cfbc 22ec ec3c 5efb 203d
00000070: a488 4a3d 947c 7cbd 7c8a 7d3e 4822 23bd
00000080: 00ef 943e d549 41bc d42a 6c3d 4f4b 793d
00000090: d9c9 cbbc ae7c 053c 0b88 073a 864f 723c
000000a0: 9892 da3d 0c18 d1bb b742 b2bd 9ded 0bbd
000000b0: 76b2 093c dda8 f03c 46fd 853c df50 0a3f
000000c0: 814d 263c afb2 9abd 4d82 413d c4bd 803c
000000d0: 5b4a 7b3d cbc7 17bc e694 1fbd 912f 9e3d
000000e0: 048d a43c 8f30 c3bb a7fe 8dba 71a7 04bb
000000f0: b21a d3bb 34f8 f43c 672a 28bb 24c5 433e
00000100: 365b 32bc 01a9 fabc ac12 ad3c 7815 3dbd
00000110: eff7 09bd b9d7 3a3c 2e2c 673c c375 8bbd
00000120: 113c e63b e1f9 c8be af3f 093d 7a84 bfbc
00000130: b681 3bbb 3419 58bc 6aef 02bc f9b2 a03c
00000140: 8e27 f53d f158 92bd 864a a8bc 39dd c1bc
00000150: 58ab aebc b169 6b3d f4fb 52bc af2b 96ba
00000160: 0cb2 fabc 17ce 12bd f764 813c 6c40 05bc
00000170: 5bb0 1fbd a54d 51bd 39de a63d 726b 5f3c
00000180: 36fe ac3e ece0 a7bb d8c4 363d a8f0 063e
00000190: 2ce3 7d3d cfc0 0a3d 4248 ecbd 1bab 5dbd
000001a0: 245b 193c 50b7 a1be 8955 123e 4138 1cbe
000001b0: 1bd1 893d f54e c6bb 6657 813d f36a 153d
000001c0: a299 333d 5d46 2dbe c02d 453d 0602 ac3c
000001d0: 19a8 d63d fa57 993c 5ab3 c2bd cdf9 123d
000001e0: 2ae1 863d 7220 e3bd 5107 22be ae70 ed3c
000001f0: 13bd 8f3c bb71 a7bc f627 6c3c a599 543d
00000200: c53d 5fbc e63b e03c 7a2b 6f3d b178 103d
00000210: 7b90 3b3d d24b 8fbc 6214 773b f0ed efbc
00000220: c863 38bb f7c4 d3bd 91f2 d63c 119e a13b
00000230: b87c 793c e6a6 be3c bbca 46bb a42f a43c
00000240: 17c2 0b3d 2207 a13c 4af5 493d b79e 4e3d
00000250: dc59 a33d 243d 6bbc 2ef6 a93c 7ece 6f3d
00000260: d55c 7cbc a17a 74bd 01f4 9e3c acfa cbbb
00000270: fe31 2abc 4775 a6ba 1e21 08bc 4050 933b
00000280: 7fe8 d439 90c5 44bc 269f 7ebb 8de3 443d
00000290: be7d af3d b956 473d 8fb8 e1bc 1d45 7f3c
000002a0: 0a12 50bc 47ed 263c b164 26bb b8e1 923d
000002b0: 2711 c83d 0dec 29bb 367f c5bd 92c5 bdbb
000002c0: ce8d 323c b6f5 dd3b 22d3 bf3c 9878 6ebe
000002d0: f929 05bc bda8 69bb 76b0 81bc bfa2 8b3b
000002e0: a660 5c3c 6d34 a93c 82eb 4f3b f003 6f3d
000002f0: d04c 3e3d c250 483d dece da3b 1e06 5f3c
00000300: 1a5c c43c 5a68 38bd 5823 a83c 2087 553e
00000310: 7534 c13c d88f e43e e936 92bc ba2f 9d3d
00000320: 2587 853c 34dd e5bc 3c23 1bbb 131a 71bd
00000330: e624 51bc f36f 09bd 9072 253d 6c4d a13d
00000340: 8311 423d d0be 1d3c adb4 f0bb 6d4f 0bbc
00000350: ab86 923c ef4a 633c 89d7 d83c 3533 febc
00000360: abef 093d 6797 5fbc 0e33 2a3d f03d 02bd
00000370: 23c2 013d e02f 833c 4c25 373c 77f5 3fbd
00000380: 80d1 023c 4ca8 01b9 bf9f a23c b69c debb
00000390: e290 883c 8282 d83b f05e 213d 5067 8c3d
000003a0: 811f 37bd a133 23bc 51b4 ecbe 82a8 7e3c
000003b0: 6528 3f3d 5487 5bbe 4763 7a3d 1d1e 1ebe
000003c0: 46b4 923d 95fd 80bc 69a1 86bc 22ca 2cbe
000003d0: 956c d73b 3d3e 32be 1709 173c 45da 8fbc
000003e0: e340 26bb 45ff ca3c c8f3 82bd 1d48 623c
000003f0: 0fd7 b5bc fc79 353d 4977 9abe fb12 bb3b

bias f4 [16]
-0.91950613 0.4892527 -0.5759223 2.0371456 -0.7189822 -0.22117426 -0.8240656 2.939978
0.28844255 -0.9157622 -0.13865916 3.8159742 3.658791 -0.038185384 0.11386798 0.112168096
00000000: c164 6bbf 547f fa3e a56f 13bf 9860 0240
00000010: 380f 38bf 817b 62be f7f5 52bf 9928 3c40
00000020: beae 933e 646f 6abf abfc 0dbe ec38 7440
00000030: a229 6a40 4768 1cbd 9e33 e93d 63b8 e53d

weight f4 [33, 33, 3, 3]
0.030161269 0.16358423 0.016328538 0.18139996 -0.4580481 0.06383959 0.09716409 0.13630734
-0.10166109 0.07032128 -0.0952706 0.024511334 -0.10424816 -0.29739878 -0.07035521 0.08694283
-0.009846173 0.078946814 0.11536964 -1.0578681 -0.23801537 0.27137914 -0.2580346 0.19923902
0.07144407 -0.10926548 0.075526424 -0.23379615 -0.119962186 -0.028266959 -1.4262309 -0.19447248
-0.033120193 -0.34071833 -0.15919106 -0.055628702 0.09414866 -0.0019240786 0.06504795 -0.08884781
-0.13601193 -0.09493066 0.03101463 -0.0131687205 0.015425753 -0.048946455 0.13610035 -0.0016823051
-0.025913056 0.15808727 0.041006416 -0.053761378 0.11497169 0.026248887 -0.03669761 0.04119493
0.036868747 -0.029203806 0.12682758 0.087769665 -0.017530873 -0.015121904 -0.03676039 -0.01766001
-0.035972364 -0.007640601 -0.35094905 0.294506 0.13473007 -0.13109349 -0.20168912 -0.04124802
-0.0014872743 -0.014915999 -0.035019785 0.0785595 0.06511769 0.031501744 -0.05366859 -0.032297637
-0.005396992 -0.09557587 -0.079880804 0.032353047 0.06409431 0.36819613 0.07714642 -0.12807332
-0.20381352 -0.04404535 -0.03640428 -0.080206744 -0.033473585 -0.010988739 -0.08181568 -0.07056451
-0.036552813 -0.010305485 -0.020745696 -0.015837613 -0.0312808 -0.05508139 0.09214806 -0.091069594
0.16457848 0.014592953 -0.015575865 -0.10787798 -0.043359306 -0.16857858 0.032128934 0.13381562
0.061796393 0.05009277 0.063407905 0.06362965 0.06454684 -0.076388694 -0.019532956 0.020467669
0.003093556 -0.05150424 -0.009584931 0.051510658 0.10834065 0.044359565 0.005659367 -0.007789563
0.14248708 -0.035841584 -0.21199211 0.025256978 -0.05508872 -0.18317673 -0.06564811 0.0011082928
0.08869405 0.124752656 -0.032592215 -0.08942458 -0.01106226 0.10858133 0.2779555 0.15704179
-0.038674254 0.051361736 -0.013161907 0.0650974 0.11333953 0.015670659 -0.058489446 -0.003781906
-0.10787169 0.021884242 0.021038348 0.04179659 -0.10650443 0.0017218918 0.11792259 0.036150564
0.08950048 0.07386654 0.0014116783 0.06453183 -0.03554209 0.04594395 -0.2430615 -0.053734895
0.04603304 0.11963079 0.019571813 -0.09627245 -0.11929224 -0.13977161 0.056437634 0.21732275
-0.07248367 -0.03165006 0.079980984 -0.033350065 -0.030519601 0.02366594 0.022771155 0.09392228
-0.041492786 -0.13529976 -0.049716093 -0.048254944 -0.10213761 0.039242666 -0.14015837 0.036428504
-0.18278709 0.6646759 -0.06249092 -0.09523036 -0.10930247 -0.07965722 0.032672025 -0.18124674
0.015031428 0.016909922 -0.98471725 -0.18634874 -0.18676692 -0.3040202 -0.06618209 -0.03075953
0.033227384 0.026495937 0.046404928 0.15732296 -0.02442131 -0.0028501474 0.06057479 0.03469097
0.06668279 0.098843694 0.01848952 0.04412546 -0.23981789 0.13874076 0.076279365 0.13052823
0.011605127 0.02764282 0.18956165 0.07569215 0.16555293 -0.077276506 0.035054818 0.063553765
0.04104923 -0.005974246 0.022529094 0.060817916 0.012877492 0.039229754 0.018519647 0.032367792
0.01885406 0.06323538 -0.001080251 -0.0043820804 -0.015908664 -0.027315114 -0.13099557 0.0761165
-0.10424725 0.06744443 0.056780722 -0.022451064 0.060348336 0.0071612285 0.0536483 -0.24632084
00000000: c414 f73c a082 273e 6dc3 853c e9c0 393e
00000010: 4885 eabe 55be 823d f7fd c63d 2794 0b3e
00000020: b133 d0bd 9a04 903d 3b1d c3bd fecb c83c
00000030: 0f80 d5bd a744 98be 6416 90bd 150f b23d
00000040: d851 21bc deae a13d eb46 ec3d 3968 87bf
00000050: 4dba 73be 35f2 8a3e 1c1d 84be 5005 4c3e
00000060: 4551 923d 94c6 dfbd 99ad 9a3d 4268 6fbe
00000070: bcae f5bd 1c90 e7bc bc8e b6bf cb23 47be
00000080: 0aa9 07bd a272 aebe fb02 23be ecda 63bd
00000090: 03d1 c03d 5d31 fcba dc37 853d d7f5 b5bd
000000a0: b646 0bbe 026b c2bd 6512 fe3c 9ec1 57bc
000000b0: 4cbc 7c3c 147c 48bd e45d 0b3e cb80 dcba
000000c0: 9e47 d4bc a1e1 213e 58f6 273d e434 5cbd
000000d0: 4776 eb3d e807 d73c 3c50 16bd 04bc 283d
000000e0: af03 173d d23c efbc 17df 013e 95c0 b33d
000000f0: e89c 8fbc ddc1 77bc 1092 16bd baab 90bc
00000100: c257 13bd 025e fabb 98af b3be 7ec9 963e
00000110: aef6 093e 5f3d 06be 9887 4ebe aff3 28bd
00000120: a5f0 c2ba 3c62 74bc e870 0fbd cee3 a03d
00000130: 6c5c 853d f907 013d 98d3 5bbd 874a 04bd
00000140: 40d9 b0bb 48bd c3bd 8c98 a3bd a184 043d
00000150: e143 833d 3484 bc3e f1fe 9d3d a725 03be
00000160: 7eb4 50be e668 34bd a81c 15bd 6f43 a4bd
00000170: 991b 09bd 1d0a 34bc fb8e a7bd 2084 90bd
00000180: 67b8 15bd 56d8 28bc e1f2 a9bc e2bd 81bc
00000190: 4c20 00bd 069d 61bd 1fb8 bc3d b282 babd
000001a0: 4387 283e 4817 6f3c ea31 7fbc 21ef dcbd
000001b0: 8799 31bd dd9f 2cbe a199 033d f606 093e
000001c0: 371e 7d3d 142e 4d3d 01dc 813d 4350 823d
000001d0: 2231 843d ad71 9cbd 9403 a0bc d0ab a73c
000001e0: 42bd 4a3b 1cf6 52bd 1d0a 1dbc d7fc 523d
000001f0: b4e1 dd3d 60b2 353d 3672 b93b 973f ffbb
00000200: 22e8 113e a0ce 12bd 7614 59be b9e7 ce3c
00000210: b6a4 61bd ae92 3bbe 8472 86bd 2344 913a
00000220: 3aa5 b53d 527e ff3d 6a7f 05bd 3c24 b7bd
00000230: 7b3e 35bc e35f de3d 2f50 8e3e 90cf 203e
00000240: e568 1ebd af60 523d 0aa5 57bc c951 853d
00000250: 8e1e e83d c15f 803c a192 6fbd dbd9 77bb
00000260: d5eb dcbd 9546 b33c 9d58 ac3c e732 2b3d
00000270: ff1e dabd 1ab1 e13a 6681 f13d 9d12 143d
00000280: 074c b73d 5747 973d 1008 b93a 4429 843d
00000290: 9594 11bd b92f 3c3d 1de5 78be 1f19 5cbd
000002a0: 248d 3c3d fd00 f53d 1155 a03c 7e2a c5bd
000002b0: 7d4f f4bd 4a20 0fbe 262b 673d db89 5e3e
000002c0: 5272 94bd 7ea3 01bd 12cd a33d 149a 08bd
000002d0: 3e04 fabc 13df c13c 938a ba3c 535a c03d
000002e0: 57f4 29bd 058c 0abe 1aa3 4bbd faa6 45bd
000002f0: 862d d1bd ebbc 203d ad85 0fbe 0e36 153d
00000300: 8a2c 3bbe 3328 2a3f 7bf6 7fbd 2308 c3bd
00000310: f9d9 dfbd 5323 a3bd 1ad3 053d bf98 39be
00000320: 6146 763c ad86 8a3c 6e16 7cbf 34d2 3ebe
00000330: d43f 3fbe 89a8 9bbe 7a8a 87bd 69fb fbbc
00000340: 7019 083d 020e d93c 1813 3e3d 4519 213e
00000350: 330f c8bc 8ac9 3abb 451d 783d 1e18 0e3d
00000360: fd90 883d 906e ca3d 5577 973c e6bc 343d
00000370: d292 75be 0f12 0e3e 5b38 9c3d 31a9 053e
00000380: 6e23 3e3c 3273 e23c 731c 423e 7c04 9b3d
00000390: b586 293e 2543 9ebd a495 0f3d 7a28 823d
000003a0: 3d23 283d 9cc3 c3bb ef8e b83c 351c 793d
000003b0: 1efc 523c 61af 203d 84b6 973c 1794 043d
000003c0: d473 9a3c 8d81 813d 3597 8dba 8e97 8fbb
000003d0: e352 82bc f2c3 dfbc b423 06be f8e2 9b3d
000003e0: 957f d5bd 4e20 8a3d e792 683d 4beb b7bc
000003f0: d12f 773d bda8 ea3b 52be 5b3d 883b 7cbe

bias f4 [33]
2.0219345 0.09682409 1.1874886 -0.78986704 -0.0015461987 -0.6086153 0.15440297 2.3139749
1.6265647 1.8389875 0.52509886 1.5702273 -1.9186575 -1.9007703 2.0335548 0.97159183
0.30212626 0.5443546 3.7931 2.1854286 -1.0232302 2.6742332 -0.92749566 0.13392907
0.9502325 -0.31878632 -0.68826467 -2.2482734 1.8704324 -1.073945 0.08358173 1.784268
-1.0170311
00000000: 6067 0140 b54b c63d a0ff 973f ba34 4abf
00000010: d2a9 caba 36ce 1bbf d01b 1e3e 2a18 1440
00000020: 4633 d03f f163 eb3f e16c 063f 35fd c83f
00000030: 9296 f5bf 714c f3bf c325 0240 3eba 783f
00000040: 4bb0 9a3e d35a 0b3f 27c2 7240 10de 0b40
00000050: 35f9 82bf a326 2b40 5b70 6dbf b424 093e
00000060: 7042 733f f637 a3be 1d32 30bf b6e3 0fc0
00000070: 546a ef3f 0877 89bf e62c ab3d e562 e43f
00000080: 132e 82bf

weight f4 [16, 33, 1, 1]
0.017370285 -0.033254378 -0.001037734 0.09039029 -0.014198375 0.056332644 0.16157393 0.009859336
0.056732867 -0.0406578 0.046418805 0.033348233 -0.36584997 -0.2493276 -0.05331684 0.075492196
0.02232513 0.028859988 0.06466239 -0.020634318 0.022519587 -0.05982578 -0.46509036 0.032834083
0.10678786 0.095698364 -0.02101917 -0.017157728 0.024773354 -0.052480757 -0.05140925 0.033839244
-0.05318884 -0.03147822 0.20808282 0.17174697 0.00091708504 0.047859855 0.009190824 -0.0033515878
0.042143937 -0.04589477 -0.010653954 -0.024103738 -0.015048555 -0.002033254 0.13039978 -0.08691992
-0.025468642 -0.020477407 0.106709905 0.08840163 0.013073007 -0.0012875525 0.041755248 -0.0030520703
0.08735088 0.031211248 -0.07315251 0.0074670124 -0.00362328 0.03628991 0.105797775 0.052950773
-0.2153932 0.009447621 -0.09623219 0.06661477 -0.04429586 -0.04053545 -0.014620414 0.07377147
0.046729174 0.043688755 -0.05924367 0.031221217 0.061351974 0.20769022 -0.08153946 -0.087813295
-0.10560853 0.12682453 0.0077258577 0.012742888 -0.13492455 -0.010701504 -0.12213567 0.029932443
-0.016476579 0.11589164 0.050382983 0.049894925 -0.026501443 0.10742991 -0.018578023 0.21237572
-0.027987342 -0.105564505 -0.034623764 -0.33561698 0.04450377 0.054958053 -0.0782889 -0.055228766
-0.5225119 0.050537594 -0.048369166 -0.018345261 -0.13231617 -0.11710919 0.0639923 0.009620934
0.068698764 -1.045464 0.1075456 -0.015436083 0.006078116 -0.033558648 0.03186669 -0.15067166
-0.12711677 0.08541698 0.099518746 -0.13174728 -0.04528814 0.056425113 -0.016119003 0.1225196
-0.0007543445 0.03519672 0.22385633 0.06850359 0.104794964 0.0054759267 -0.13042581 0.03356712
0.03551947 0.3371701 -0.075925104 -0.03212324 0.033525657 0.045899585 -0.01647096 -0.0520211
0.096704334 -0.028824149 -0.24321981 -0.09683884 0.12127241 0.021159327 0.05605835 -0.13682622
0.05502916 0.0016786029 -0.10799059 0.009367567 0.042741682 0.007831163 -0.0470803 -0.03914235
-0.11329008 0.26304427 -0.089425184 0.3201577 -0.03740794 0.0783194 0.16899335 0.14833656
0.06513105 -0.0052656704 0.12320942 0.015255287 0.008813666 -0.045223523 -0.10723908 -0.07598695
-0.14364696 0.019242808 0.1578232 0.11227661 -0.14145383 0.10557677 0.06064102 -0.12197084
0.027875185 0.06257743 -0.06921037 0.12110893 0.25010562 -0.046505712 -0.09018927 0.043405406
-0.09039809 0.00082556315 0.07151318 0.11520394 -0.13626511 0.10551093 0.017677462 -0.053677175
-0.008451306 0.085749224 0.059158146 -0.012068963 0.02316073 -0.0069269175 -0.01816166 0.07712608
-0.031709764 0.08685693 -0.028573351 0.13725783 0.5767229 0.023396399 0.13163097 -0.09236073
0.032332487 0.10324663 -0.020642105 -0.015420002 0.027845366 -0.07829508 0.011247774 -0.04177593
0.08952928 0.16306342 -0.04398526 -0.118860364 0.015342744 0.12785722 0.020013696 -0.09508196
0.024473445 0.051489487 0.25993365 -0.008913278 0.03286149 0.04004716 -0.024473969 0.016951142
0.17176905 -0.024341356 -0.1072832 0.043564077 0.060013182 0.01308626 0.009412093 0.014794969
0.020252679 0.07394517 -0.08331365 0.14399302 -0.053664718 0.04394512 -0.12585342 -0.04269803
00000000: 214c 8e3c be35 08bd 9304 88ba 8b1e b93d
00000010: 4da0 68bc 0fbd 663d a373 253e 0d89 213c
00000020: b960 683d cb88 26bd a521 3e3d 2898 083d
00000030: b050 bbbe bc4f 7fbe c262 5abd a79b 9a3d
00000040: 31e3 b63c c86b ec3c b76d 843d 4d09 a9bc
00000050: ff7a b83c e10b 75bd 5320 eebe 087d 063d
00000060: 98b3 da3d 81fd c33d 6530 acbc 5d8e 8cbc
00000070: 7df1 ca3c 10f6 56bd 8192 52bd 059b 0a3d
00000080: 8bdc 59bd 4eef 00bd aa13 553e 70de 2f3e
00000090: 8968 703a b208 443d 1c95 163c 50a6 5bbb
000000a0: 1f9f 2c3d 28fc 3bbd ec8d 2ebc 3475 c5bc
000000b0: 378e 76bc 5740 05bb 8587 053e 1203 b2bd
000000c0: 9da3 d0bc 3cc0 a7bc b98a da3d ea0b b53d
000000d0: 2a30 563c 18c3 a8ba 8d07 2b3d 3e05 48bb
000000e0: 05e5 b23d bbae ff3c fcd0 95bd d7ad f43b
000000f0: 8d74 6dbb bba4 143d 81ac d83d e9e2 583d
00000100: 0990 5cbe 32ca 1a3c 6215 c5bd 536d 883d
00000110: 936f 35bd 8008 26bd 768a 6fbc 7f15 973d
00000120: 1767 3f3d fbf2 323d 7ea9 72bd a3c3 ff3c
00000130: 354c 7b3d bfac 543e 29fe a6bd 75d7 b3bd
00000140: 4949 d8bd 4ade 013e 3129 fd3b 8cc7 503c
00000150: a929 0abe 5c55 2fbc 4422 fabd e234 f53c
00000160: e4f9 86bc 9958 ed3d 635e 4e3d 9f5e 4c3d
00000170: 8e19 d9bc 3604 dc3d f030 98bc 0579 593e
00000180: b645 e5bc 3432 d8bd a6d1 0dbd fdd5 abbe
00000190: 9649 363d b21b 613d ee55 a0bd 8f37 62bd
000001a0: 57c3 05bf 8200 4f3d bf1e 46bd cd48 96bc
000001b0: e47d 07be f1d6 efbd 650e 833d 1fa1 1d3c
000001c0: f0b1 8c3d c4d1 85bf de40 dc3d a0e7 7cbc
000001d0: ef2a c73b cb74 09bd a586 023d ac49 1abe
000001e0: e62a 02be 19ef ae3d 7cd0 cb3d c2e8 06be
000001f0: 0f80 39bd 051e 673d 000c 84bc 8eeb fa3d
00000200: 34bf 45ba 702a 103d 983a 653e 9c4b 8c3d
00000210: be9e d63d 676f b33b 588e 05be ad7d 093d
00000220: dd7c 113d 8fa1 ac3e 9f7e 9bbd a993 03bd
00000230: 3352 093d 3401 3c3d 1bee 86bc 1414 55bd
00000240: ec0c c63d 9f20 ecbc 9d0e 79be 7153 c6bd
00000250: ab5d f83d 5356 ad3c 719d 653d 2c1c 0cbe
00000260: 4266 613d 9104 dc3a 2c2a ddbd 6c7a 193c
00000270: e711 2f3d 474e 003c 46d7 40bd bb53 20bd
00000280: a104 e8bd bdad 863e 8d24 b7bd b6eb a33e
00000290: 1139 19bd ec65 a03d 980c 2d3e 8ae5 173e
000002a0: 6e63 853d a58b acbb 3855 fc3d 50f1 793c
000002b0: 3267 103c 4d3c 39bd 2aa0 dbbd 0c9f 9bbd
000002c0: 3018 13be 18a3 9d3c 689c 213e 48f1 e53d
000002d0: 46d9 10be a238 d83d b862 783d d9cb f9bd
000002e0: 805a e43c 9828 803d 2bbe 8dbd f507 f83d
000002f0: d80d 803e c67c 3ebd 27b5 b8bd dec9 313d
00000300: a222 b9bd 9b6a 583a 8175 923d 0bf0 eb3d
00000310: 1589 0bbe 1d16 d83d 53d0 903c 99dc 5bbd
00000320: 5977 0abc 4a9d af3d d04f 723d e6bc 45bc
00000330: 92bb bd3c 32fb e2bb c3c7 94bc 47f4 9d3d
00000340: 19e2 01bd 0ce2 b13d a912 eabc 518d 0c3e
00000350: 1da4 133f cea9 bf3c 45ca 063e 9f27 bdbd
00000360: 126f 043d f872 d33d a219 a9bc 2da4 7cbc
00000370: f71b e43c 2c59 a0bd 9548 383c 3d1d 2bbd
00000380: 215b b73d 19fa 263e e329 34bd 106d f3bd
00000390: 2260 7b3c 01ed 023e c3f3 a33c 55ba c2bd
000003a0: 897c c83c a4e6 523d 0616 853e ff08 12bc
000003b0: c599 063d 7e08 243d a27d c8bc 1fdd 8a3c
000003c0: 3ae4 2f3e 8667 c7bc 4bb7 dbbd 3f70 323d
000003d0: 62d0 753d c167 563c 2e35 1a3c 9966 723c
000003e0: f2e8 a53c 9170 973d 59a0 aabd e872 133e
000003f0: 89cf 5bbd ccff 333d b8df 00be 21e4 2ebd

bias f4 [16]
2.297103 1.3652643 -1.8838075 -1.6402222 -3.6784837 -1.092485 -0.093119316 -0.42626795
-0.8629874 -2.892282 -1.1576482 -1.774651 -0.81838304 -0.8523776 -0.27112028 1.4321731
00000000: bc03 1340 fbc0 ae3f 9b20 f1bf cdf2 d1bf
00000010: 476c 6bc0 8cd6 8bbf 57b5 bebd cb3f dabe
00000020: beec 5cbf 261b 39c0 d12d 94bf c427 e3bf
00000030: 8d81 51bf 6b35 5abf 47d0 8abe 7351 b73f

weight f4 [33, 33, 3, 3]
0.001006121 0.030788327 0.049417112 0.021769904 -1.0223134 -0.21014693 -0.06739599 0.008969178
0.003468815 0.011171393 -0.08845888 -0.017999113 0.10040245 0.075488366 0.23230828 0.070343465
-0.030964263 0.027332999 -0.0074645653 -0.0153710125 -0.006192407 -0.016341308 -0.003566645 0.14036644
-0.031155564 -0.03415363 -0.0706136 -0.015148576 0.051689655 -0.054986756 -0.021261035 -0.11848038
0.04347592 0.009465224 0.010548367 0.022774462 0.040142603 0.029744409 0.01986078 0.05006517
-0.031254213 0.045380432 -0.0064813085 -0.07348401 -0.08016042 -0.096121006 -0.09817782 -0.032695636
-0.024829883 -0.13831261 0.3792242 -0.035506167 -0.071178876 0.08698739 -0.1528129 -0.059856437
-0.1049659 0.038115513 0.30947626 -0.008558853 -0.05973462 0.08926112 0.05591566 0.1443569
-0.034172982 0.09284531 0.15148598 -0.047986906 0.19830084 0.099032275 0.05831372 0.02286006
0.02807191 0.06638767 -0.026185062 -0.0020627389 0.020222906 0.10992502 -0.014184958 -0.04107373
0.03899464 0.12036279 0.05891728 0.13658942 0.056150112 0.085851885 -0.2537075 0.047109984
0.028082341 0.07380814 0.008737834 0.07092699 0.083001025 -0.0549447 0.032883134 -0.17004037
-0.006123206 -0.0053345193 -0.101489514 -0.01438106 0.112353295 0.05954945 -0.024007022 0.16863105
-0.14040758 -0.043900333 -0.053042 -0.16115099 -0.023618067 -0.11495205 3.81426e-05 0.12798646
0.2615858 0.029227588 -0.04720866 -0.014233164 0.044531353 0.024724402 -0.08938049 0.08032704
-0.0040513827 -0.021617856 0.072613984 -0.0072477236 -0.02597637 0.0102025205 0.05596074 0.13702217
0.038154725 0.03537349 0.16621202 -0.22932719 0.09032939 0.18024588 -0.006448092 0.13711984
0.08061895 0.03952373 0.025154443 0.08461715 -0.27972218 0.06067834 0.06419304 -0.010925544
-0.0384535 -0.0856119 -0.055412516 0.006298531 -0.026117422 0.0993291 -0.009787124 -0.052146588
-0.042860486 0.017836066 0.016745837 0.15058962 0.051877994 0.14148867 0.2113044 -0.039402433
0.0878796 -0.002428721 -0.008896326 0.05969096 0.04175567 -0.049894985 0.14401083 -0.27929917
-0.015101982 0.13059051 0.0073854025 -0.045188855 -0.043385826 -0.026139654 -0.068771355 -0.09961721
0.26359573 -0.026262702 -0.035479315 -0.09306065 -0.022161482 -0.0976912 -0.031785764 -0.071847126
-0.06554039 0.10118389 -0.035500493 -0.0063849324 0.05271467 0.04719395 0.17456876 0.19008292
0.001804995 0.12687892 -0.067025855 -0.019904753 0.0033572626 -0.008016149 -0.07604994 -0.14669216
-0.055979725 -0.22857347 -0.61312264 0.03999948 -0.064592436 -0.12665124 -0.04228877 -0.08391062
0.040947445 0.045301393 -0.006379905 0.116956204 -0.04708677 -0.09322565 0.04902276 -0.082710706
0.0034143596 0.005183199 0.043522578 0.023306787 -0.05589943 -0.107823215 -0.03531332 -0.013886471
-0.058680914 -0.041169893 -0.043124944 -0.09625358 -0.045343284 0.007534462 -0.03643044 -0.06033185
-0.012613389 -0.030145569 -0.12902866 -0.19431765 -0.15172164 -0.07051835 0.18663302 -0.115371674
-0.079639986 -0.0027260196 0.0040857363 -0.025686793 0.045418512 -0.00032603877 -0.0017603751 0.02844623
-0.036599625 -0.031606127 0.01692266 -0.0619665 0.00617259 -0.10654822 -0.045726974 0.049221814
00000000: d2df 833a cd37 fc3c 9969 4a3d cc56 b23c
00000010: 2adb 82bf c230 57be e906 8abd 76f3 123c
00000020: 0f55 633b 3808 373c ee29 b5bd e072 93bc
00000030: cd9f cd3d a599 9a3d 39e2 6d3e 3c10 903d
00000040: c4a8 fdbc 74e9 df3c 5099 f4bb b3d6 7bbc
00000050: ade9 cabb 35de 85bc 60be 69bb 38bc 0f3e
00000060: f439 ffbc ade4 0bbd dd9d 90bd bc31 78bc
00000070: 88b8 533d cb39 61bd 9f2b aebc d7a5 f2bd
00000080: ce13 323d 0714 1b3c 0fd3 2c3c 8291 ba3c
00000090: 926c 243d 8caa f33c 13b3 a23c 2311 4d3d
000000a0: 6b04 00bd d5e0 393d 2861 d4bb c97e 96bd
000000b0: 252b a4bd 17db c4bd 7411 c9bd dceb 05bd
000000c0: 0a68 cbbc d2a1 0dbe ad29 c23e ea6e 11bd
000000d0: 3bc6 91bd 7226 b23d fc7a 1cbe 062c 75bd
000000e0: 5df8 d6bd 031f 1c3d ac73 9e3e 6e3a 0cbc
000000f0: 4aac 74bd 89ce b63d d207 653d 4cd2 133e
00000100: f8f8 0bbd af25 be3d 241f 1b3e eb8d 44bd
00000110: 600f 4b3e 6fd1 ca3d 5eda 6e3d 0545 bb3c
00000120: 10f7 e53c 42f6 873d 0e82 d6bc 042f 07bb
00000130: 82aa a53c 5e20 e13d 0768 68bc ed3c 28bd
00000140: d8b8 1f3d c480 f63d 3f53 713d 19de 0b3e
00000150: a9fd 653d 1dd3 af3d f3e5 81be 66f6 403d
00000160: f00c e63c b928 973d 2229 0f3c 2b42 913d
00000170: 71fc a93d b20d 61bd 77b0 063d 101f 2ebe
00000180: 2da5 c8bb 31cd aebb bcd9 cfbd 8a9e 6bbc
00000190: 7c19 e63d 20ea 733d 60aa c4bc 9ead 2c3e
000001a0: 01c7 0fbe d6d0 33bd 9142 59bd c404 25be
000001b0: ad7a c1bc fb6b ebbd 4efb 1f38 e20e 033e
000001c0: 93ee 853e b26e ef3c de5d 41bd 3732 69bc
000001d0: 8266 363d d48a ca3c 1e0d b7bd 8182 a43d
000001e0: 76c1 84bb ee17 b1bc a4b6 943d 507e edbb
000001f0: 65cc d4bc 7928 273c 1737 653d 8a4f 0c3e
00000200: 2148 1c3d cbe3 103d 7c33 2a3e bfd4 6abe
00000210: 9dfe b83d 6092 383e 844a d3bb 2569 0c3e
00000220: 8c1b a53d a2e3 213d b110 ce3c c24b ad3d
00000230: bf37 8fbe da89 783d a477 833d 0e01 33bc
00000240: 6b81 1dbd 4b55 afbd 3cf8 62bd e863 ce3b
00000250: 34f4 d5bc 0e6d cb3d 2c5a 20bc a997 55bd
00000260: 7a8e 2fbd f11c 923c 912e 893c 2a34 1a3e
00000270: 057e 543d 68e2 103e 2e60 583e 7264 21bd
00000280: 38fa b33d 2d2b 1fbb e5c1 11bc 827e 743d
00000290: fe07 2b3d af5e 4cbd 9377 133e 4d00 8fbe
000002a0: 4e6e 77bc 85b9 053e 3f01 f23b f317 39bd
000002b0: 56b5 31bd d422 d6bc ffd7 8cbd 1c04 ccbd
000002c0: 05f6 863e e124 d7bc c252 11bd 9596 bebd
000002d0: ff8b b5bc 5312 c8bd ca31 02bd 9624 93bd
000002e0: 0a3a 86bd 8039 cf3d f768 11bd b238 d1bb
000002f0: 56eb 573d 714e 413d 27c2 323e 19a5 423e
00000300: 9595 ec3a 8cec 013e da44 89bd 4b0f a3bc
00000310: 8505 5c3b 2a56 03bc 12c0 9bbd 7836 16be
00000320: ff4a 65bd 2a0f 6abe 9bf5 1cbf 7fd6 233d
00000330: 0a49 84bd ddb0 01be fd36 2dbd 55d9 abbd
00000340: 82b8 273d f48d 393d 860e d1bb bc86 ef3d
00000350: 0fde 40bd 17ed bebd 17cc 483d 3b64 a9bd
00000360: 73c3 5f3b d3d7 a93b bb44 323d e0ed be3c
00000370: cdf6 64bd 6bd2 dcbd b3a4 10bd 1584 63bc
00000380: 665b 70bd c3a1 28bd c8a3 30bd 9920 c5bd
00000390: e1b9 39bd a6e3 f63b 1638 15bd 881e 77bd
000003a0: 63a8 4ebc d7f3 f6bc 1720 04be 35fb 46be
000003b0: eb5c 1bbe ed6b 90bd ba1c 3f3e fc47 ecbd
000003c0: 4a1a a3bd 05a7 32bb a4e1 853b 1c6d d2bc
000003d0: c308 3a3d 2ff0 aab9 63bc e6ba 1108 e93c
000003e0: 7de9 15bd 6d75 01bd 64a1 8a3c 96d0 7dbd
000003f0: 7043 ca3b f435 dabd 354c 3bbd d09c 493d

bias f4 [33]
1.9852226 0.76200014 2.1876488 -0.9141069 0.7488555 3.9264448 0.5724313 1.428924
1.2802212 1.2947094 0.77770144 -0.24380466 1.0877584 1.9829599 0.9859384 -1.4598225
0.7294518 1.1517624 1.5720638 -0.7650302 -1.6427158 0.88016844 2.3673525 1.9691689
0.5101081 -1.4423668 0.76011837 0.22419891 1.1169648 1.7209972 1.8998901 -0.19722936
1.4736521
00000000: c61b fe3f 7112 433f 7002 0c40 e902 6abf
00000010: feb4 3f3f df4a 7b40 dc8a 123f fbe6 b63f
00000020: 4ade a33f 0ab9 a53f 7117 473f eea7 79be
00000030: ab3b 8b3f a1d1 fd3f 7566 7c3f 77db babf
00000040: 5abd 3a3f f36c 933f 6339 c93f 05d9 43bf
00000050: 8344 d2bf b852 613f b482 1740 ba0d fc3f
00000060: 7296 023f 7a9f b8bf 1e97 423f 6694 653e
00000070: b4f8 8e3f a349 dc3f 992f f33f 7ef6 49be
00000080: a2a0 bc3f
